src/machine_learning_course/weights/b.npy (npy, 8128 bytes, 1 tensors)

array f8 [1000]
00000000: f0c4 f12a 9779 b0bf fa92 a565 81ea ccbf
00000010: 25ed 1b50 3066 ab3f 43a4 1b19 e894 c33f
00000020: eb29 29b8 9e9e c6bf 65a2 0530 f6ef c2bf
00000030: a85c 0ef1 fb96 b3bf d0a7 97ff 28c4 a4bf
00000040: d955 ccde af3e a0bf f0ab de70 cc83 b0bf
00000050: a2eb 26de 716c c93f 3377 4b5b e029 dc3f
00000060: 7d7b cfae da4c d53f 7484 ef8a 32ba dd3f
00000070: 1072 1a51 a0eb 8abf 7815 f226 91e6 d23f
00000080: cbbe 9439 f8c4 b7bf 01d8 068b 796a bcbf
00000090: c299 61c0 2630 a2bf 6b41 11f9 70ac adbf
000000a0: 0be5 2ead 5891 b1bf ae9b df37 b9db c13f
000000b0: 36d1 e3a8 7ceb 98bf af77 8899 d04d c9bf
000000c0: af0e 88e6 c07a b0bf 1dcf 6316 7843 a6bf
000000d0: 85f0 66dc 4aef c1bf e7e2 0335 7307 9b3f
000000e0: 4e07 5344 eb92 9bbf d98f a30b 98df ca3f
000000f0: e7fe cfa7 2841 bd3f 4612 a66c d273 cfbf
00000100: 44ac 9f39 c968 53bf 0105 f448 1192 71bf
00000110: 850f 1e7f efbf d53f 80c4 8e75 0183 493f
00000120: 82d7 42ad 1a29 adbf 8ac8 8133 4b9e c43f
00000130: 801b 5ddb d851 88bf 6234 e728 8551 e1bf
00000140: 5cbb 5872 edba bc3f f94d 9a04 d7e4 b5bf
00000150: ef3e 4262 103e c8bf 49df 662b 8653 a0bf
00000160: 1282 3feb 0dbe 933f d0fd 35e6 c287 b3bf
00000170: 7a2f fcdd 098d afbf 3cf9 9ff4 b4b4 a3bf
00000180: a8e9 6734 f3dc eabf 8a8e 9ca6 e419 a0bf
00000190: d46f b57b 9eba c73f 6004 1ecb 3b41 cbbf
000001a0: 613a 85d5 8e68 a4bf b761 b642 5cdc babf
000001b0: 0cd4 c072 41ce a4bf e9b4 8c94 8353 e0bf
000001c0: cb9a bd7b 05d2 a23f 9bce ed4a 6445 be3f
000001d0: 38c4 2b71 1628 8dbf f8ee 41c1 8f54 bcbf
000001e0: 00f0 8b6f e5b4 a8bf 6db8 067c 5319 c8bf
000001f0: 6364 e818 30e6 e23f bf2b 157a 33d9 aebf
00000200: cb92 4a34 1e76 b3bf ea15 a798 58c2 b9bf
00000210: 9f3a 0764 5ab2 d0bf f204 ca0c 954d a4bf
00000220: e2eb 9f77 4f67 c4bf 20f8 ca4f 19c3 be3f
00000230: 20ca 4e98 8b31 7abf 406f 0783 e81e b03f
00000240: 66c2 07fa 981c b0bf 2cb7 7d24 845a b2bf
00000250: d141 6521 2256 9cbf 4fde 5f29 9398 adbf
00000260: fcb8 b1a3 59f1 cbbf 4a5a d4c2 f171 c63f
00000270: a217 f8be 1b62 98bf 0561 ef66 8d8c d53f
00000280: 26d9 fdb7 3472 efbf 942d 4661 8dc1 da3f
00000290: db41 8823 d235 a2bf c2bb 7cf9 7740 c33f
000002a0: b9ea ca06 585c c0bf e302 ca13 d1e8 b0bf
000002b0: e986 4bb9 c355 eabf 92c1 a1b5 03b2 9ebf
000002c0: 4687 73c2 8722 c4bf 5af5 11b8 4e00 abbf
000002d0: d1c0 f29f db62 ca3f 8921 46da d8ba a7bf
000002e0: 4280 4b73 5f41 9cbf 7bcd 9398 dfb9 b0bf
000002f0: 0efa 6b8c c8e7 f1bf 2af4 0e10 ed61 ba3f
00000300: beb8 6d36 0330 d0bf 1484 190d 2681 bf3f
00000310: ab0d 5928 0fb7 993f d304 688a 7939 b3bf
00000320: 0f0c 8aab 96ce a4bf 1282 7417 237e 95bf
00000330: b1ba 0d3a 7f1c c3bf d4d8 9497 76d9 c6bf
00000340: 407c 0fd5 45d6 6fbf 9c88 4d20 9417 c7bf
00000350: 62ce ad74 6427 acbf 36f4 f6ea b855 9bbf
00000360: 8bfe aab7 97cd e2bf 8747 273f 7c5f a7bf
00000370: e8c8 56bc 73eb adbf 8ba4 dff3 696a d33f
00000380: cf72 fd5f 82e6 d03f 40eb 03fc eca0 c23f
00000390: 854f 44a4 1ea6 b2bf 527e 9c6a 26ca c63f
000003a0: 21c9 d620 282b d3bf 93bc a536 4448 b0bf
000003b0: 28b7 cb3c 7482 a0bf 7165 f7cb e230 c0bf
000003c0: e0a1 3426 7bf2 cc3f 230b 221a ff54 d9bf
000003d0: 6eb2 bb2d b82b cc3f 48fb 4c12 d3ae b9bf
000003e0: 8c19 7da5 1fa4 b2bf 708e d74a 950d 8b3f
000003f0: a8ef ba75 086a c2bf 2dcc 1c38 3fac bcbf
00000400: 1896 ea17 347d bebf d248 2574 36a0 bf3f
00000410: 7f24 6dae 2a37 b3bf bf7a 5b80 1fdd cf3f
00000420: ea61 8fbd 0150 d0bf 28a9 5995 3001 b1bf
00000430: 30ac 62ff 1692 adbf e978 b2c1 1b92 adbf
00000440: 789f ac08 87f5 b2bf a815 84ca 77f1 d03f
00000450: 4bb2 6f28 6020 e3bf a87c 0ad8 f8c4 d8bf
00000460: 5ba2 57dc 1ba8 b23f eedc 4890 5096 b3bf
00000470: 1ebb 6f1d 74c2 c13f 5936 de67 8fdd babf
00000480: 5dd9 be04 a4e0 a3bf 7c74 1f9b a00c bebf
00000490: 00d3 60e0 8f96 c5bf c8c8 530a 9141 a8bf
000004a0: 7e8b dcbf bcdf aebf fdd0 79dc 1d7f 8cbf
000004b0: aa5d 32c9 1833 c7bf 560a 627e 05e7 bebf
000004c0: e31b f95d 963c b2bf befe 14b7 4c4e e03f
000004d0: bcea 10f6 d0c9 b1bf b695 2ae0 8544 e33f
000004e0: 58e3 c5ae 3f7a acbf e6ac 1e55 8b1a aabf
000004f0: 9a09 f5e3 43ea 99bf 0058 6f1a 88b0 25bf
00000500: 82a1 8859 1a15 bd3f 89e3 8446 ed83 7c3f
00000510: 9254 9fde 64e3 a5bf 4125 eeed ca3a cdbf
00000520: 3ad8 5c08 c152 c13f 9c11 d507 3c9b cbbf
00000530: e81f ee4f 70f6 bebf a0f3 4e51 0775 a4bf
00000540: 7c09 6373 57cd afbf a27d defb da1f c6bf
00000550: 4287 8e35 137c e43f cf0e 4e03 6346 c83f
00000560: 0767 f5e4 df16 cebf a25f 9a33 ccf1 df3f
00000570: 3b8d a666 65ba afbf da90 d82c 6ec1 be3f
00000580: 48d5 e0d0 7c8c ae3f 54c4 1648 5177 b2bf
00000590: 6ded 1405 2d5d cebf 6542 9022 e40e a1bf
000005a0: c787 09d3 3abf 9abf c6dc 73f1 24c8 b0bf
000005b0: e0bc 9ea7 fcfe 90bf fade 51ff ee2e b9bf
000005c0: da57 dcc3 fe05 8dbf 2034 79ef a328 e63f
000005d0: d61b 7d16 15e8 c3bf 5842 f773 63cf 8dbf
000005e0: 7770 a7db 18ff 99bf 0090 69e4 21dd 94bf
000005f0: 1882 8f35 e3ba babf ca7d 6ec5 bdc3 cdbf
00000600: 533c 8ae0 f78c c0bf fedf d168 1f29 c6bf
00000610: 619f 44ae a57f b3bf 5e73 a117 3270 b3bf
00000620: a812 597f 9df4 aabf b55f 7c6b 821b c7bf
00000630: aca6 7e48 43aa a6bf 6cfe 2457 f1b4 833f
00000640: bb04 54ec 49be e03f dc83 77d4 f93b a9bf
00000650: b77f 2b45 f25d bc3f 91c1 0ab1 6009 a9bf
00000660: ad9c 6688 f682 adbf e9bf 3249 ffc9 c6bf
00000670: 36b6 ac67 75d1 c3bf 68c2 b87f 0e84 81bf
00000680: 8d8a 2e65 6f30 b7bf b608 eba1 12d3 e0bf
00000690: 9194 6caa eae7 c5bf 2360 f546 2e95 d9bf
000006a0: ad73 29c9 1eec b7bf a864 68c0 fb53 b03f
000006b0: 55f5 473d 08e9 b2bf 12e0 5939 cb98 b2bf
000006c0: 10a0 96e1 b10e c63f a9f6 f009 59d5 a8bf
000006d0: 170c e1a8 dada bfbf ed0f fea2 e2e5 bebf
000006e0: c4db f22b 630c c3bf 2c3f 02b9 529d 9cbf
000006f0: 0167 3b25 d8fb d43f a03e 5f81 7f2c 70bf
00000700: 9096 0163 405d d83f 6234 234c 4c05 bfbf
00000710: a464 bc29 cc35 63bf bf91 b9a9 b6fe c13f
00000720: 3911 7e56 3e84 ddbf cfef f5e0 f4a0 c6bf
00000730: a234 5dff c451 f1bf 565d ba30 af25 aabf
00000740: f01b 0a09 81d0 bebf b12d bb48 28f0 c8bf
00000750: a489 04b6 cb4d 933f 9bf4 a4b0 6232 e7bf
00000760: 5f39 ad0f c093 bfbf 5d34 7d1c 0559 d03f
00000770: aaac f6ed f67c a03f 5a61 a275 969b aebf
00000780: 3989 4896 97cc c4bf b40e 1a63 d97e c4bf
00000790: ed57 3588 bc77 bebf 698c 3056 6c54 a0bf
000007a0: 7361 5f26 18f0 e4bf cfbd 1c42 28d8 b1bf
000007b0: d60a 41a6 e56d cc3f e20c 9c1d 9c51 a8bf
000007c0: e239 2e0f 1232 b3bf bea3 d183 2ebd d83f
000007d0: d704 e222 3d1b b9bf 573c 02f3 14ad 91bf
000007e0: e754 ac5c 732a 94bf ae13 b890 601b 97bf
000007f0: 752f 8d2b 2ff1 d13f 88e1 8eae 18c6 c3bf
-0.0643553237766985 -0.22590653861256965 0.05351401307958729 0.15298176980948783 -0.1767156981680523 -0.1479480490190951 -0.07652258525046085 -0.04055908317589252
-0.03172826380447775 -0.06451108699427244 0.1986219725348209 0.4400559321928654 0.3328158099301886 0.4644895893853296 -0.013144733882023224 0.2953226929024235
-0.09284926801478403 -0.11099967617232666 -0.035523615821876145 -0.05795624771474447 -0.06862405994515457 0.1395179293460535 -0.024335811432096587 -0.19768722054226148
-0.06437307003221336 -0.04348349831880525 -0.14011512529203088 0.026395607100286347 -0.02692763905066125 0.20994854515367825 0.114275494546742 -0.24572210602868177
-0.0011846509064479408 -0.004289691466739188 0.33983981527148216 0.0007785565495536245 -0.05695422520641015 0.1610807420252665 -0.011874860948990706 -0.541201190842582
0.11222728768983131 -0.08552306997653848 -0.18939404294768944 -0.031887238309933404 0.019279687388804652 -0.07629030342467691 -0.06162291369227453 -0.03848805891174087
-0.8394714377930557 -0.031447549188922855 0.18538266220536903 -0.2129282705100506 -0.0398602138180777 -0.104924932753767 -0.04063610578342755 -0.5101945783004825
0.03675858626848124 0.11824633435554192 -0.014236617401794147 -0.11066530674173325 -0.04825512873318871 -0.1882728915783817 0.5905991064529527 -0.06025086274401969
-0.07602108742373585 -0.10062173582908654 -0.2608858086431755 -0.03965440541379363 -0.15940278378533806 0.12016447256152718 -0.006394906323225175 0.06297162245703891
-0.06293636421447388 -0.07169366732497612 -0.02767232254820035 -0.057804678726765084 -0.21830292218096037 0.17535230649146377 -0.02381175377924872 0.3367036347604116
-0.9826911538682779 0.4180634927694993 -0.03556687053435655 0.15040492708200587 -0.12781811076805186 -0.06605250104076847 -0.8229693049472334 -0.029975946389130544
-0.15730378145877405 -0.05273672100973199 0.20614190397237178 -0.046347405094880285 -0.027593127643626987 -0.06533620333703098 -1.119087742350192 0.10305673257876494
-0.25293045344632137 0.12306440181556894 0.025112377965582116 -0.07509574536381373 -0.04063864559159224 -0.020988987261377608 -0.149307158800601 -0.17851145173489746
-0.0038863529120898577 -0.18040706231392256 -0.05498804020217275 -0.026694192257981274 -0.5875967585815983 -0.045650370320472304 -0.05843698190746399 0.30336998763829887
0.26406916975046796 0.1455360632461069 -0.07284728537007197 0.1780441303790093 -0.29950907904562213 -0.06360269865193606 -0.032245285436017845 -0.12649188002869097
0.2261499344397313 -0.3958127742009074 0.2200842116648291 -0.10032386013788852 -0.07281682768107184 0.013209501596924883 -0.1438608717779719 -0.11200327987607812
-0.11909795364280062 0.12353840194308255 -0.07506052740531464 0.24893564002464605 -0.2548832274601681 -0.06642440458532362 -0.0577552019834332 -0.05775534381358389
-0.07405895196700196 0.2647380330748441 -0.5977021016856922 -0.38702221963644456 0.07287763719035338 -0.07651237032483824 0.1387467521412526 -0.10494324003067258
-0.03882324750832098 -0.117380178329272 -0.16865728813140635 -0.04737523318353137 -0.06030073015269631 -0.013914330759896116 -0.18124685119685796 -0.12071260772248968
-0.07123698992027942 0.5095580650158451 -0.06948572165939998 0.6021146181343997 -0.055620184025377994 -0.050983766689876295 -0.025307713306810344 -0.0001654783384014702
0.11360325513726902 0.0069617527554378745 -0.04275050370748902 -0.22835671060264853 0.135337952693307 -0.21567488081394692 -0.12094785643978379 -0.03995535724195709
-0.062113507113752825 -0.1728471498326885 0.640145878413229 0.18964803372738578 -0.2350730770074778 0.4991331581054458 -0.06196896436747542 0.12013901324150159
0.059665585038980284 -0.07213314065917703 -0.23721850155002802 -0.033316735476664396 -0.02612010872906703 -0.06555395979727327 -0.016597697954861768 -0.09837239964860692
-0.014171591140932738 0.6924609830108501 -0.15552009199220035 -0.014555718399521897 -0.02538718071615206 -0.020374803129371344 -0.10441417749053306 -0.23253605022635632
-0.12930201019159657 -0.1731299650016353 -0.0761664915522693 -0.07593072010918209 -0.052647516055491395 -0.18052702186900907 -0.04426775226540988 0.00962246463006907
0.5232286086831189 -0.04928570479001568 0.11080850781172456 -0.04889967118413375 -0.05763979353951618 -0.1780394656575475 -0.1548296695922759 -0.008552659294850787
-0.09058281154879406 -0.5257657206023143 -0.1711400348805552 -0.3997302716211399 -0.09344665919475288 0.06378148505645476 -0.07386828895683568 -0.07264394903347718
0.17232345118577586 -0.04850271459916417 -0.12443319914841343 -0.12069527129466424 -0.14881553312235785 -0.027943890134849145 0.3278713573068757 -0.0039486866644008745
0.380691620527025 -0.12117459162546276 -0.0023449885901639256 0.14058573996875443 -0.4611965031292758 -0.1767870043221351 -1.0824632620963617 -0.05106875867675835
-0.12036901922884602 -0.1948290209896704 0.018851454720001506 -0.7249005746922593 -0.12334823973399044 0.2554333475316691 0.03220340399578821 -0.05978079019513656
-0.16249365652135753 -0.16012112940744816 -0.1190145332851384 -0.03189409782523784 -0.6543083905662982 -0.06970454801625368 0.22210379236101713 -0.047497633566331535
-0.07498276587123301 0.38654673455181043 -0.09807188130982368 -0.017261817295146944 -0.019693186312982027 -0.02256537326140389 0.2803457188899679 -0.1544829227766622
