src/machine_learning_course/weights/w.npy (npy, 16128 bytes, 1 tensors)

array f8 [2, 1000]
00000000: e724 9888 3dcc 8dbf 0766 5db2 4e8a b8bf
00000010: c1ec 8098 069c d3bf aa9b 9aa1 bfe8 b5bf
00000020: 992a fb33 ed56 aebf 1c1c 34cf c746 abbf
00000030: e050 5cdb 6ddd 853f 58ea 25db dba8 833f
00000040: c049 b78d 44bf aabf 319f c18f 640a 673f
00000050: 36e1 b60c d490 d2bf 3306 7d69 150f ecbf
00000060: 73ce 5b09 76cb e4bf 1e0c 35b6 0566 e3bf
00000070: 9aab e8b9 93b7 aebf 3572 b17c e1ff e3bf
00000080: 03ac 3cb5 9567 71bf 6354 4371 4075 b5bf
00000090: 60b9 a2eb 85be 88bf 6d27 0a3a 6e5a a4bf
000000a0: c415 c58a 9500 9ebf 48bc 24fc ac18 cebf
000000b0: 9a67 337f a9de 93bf af8b dae9 16fb b3bf
000000c0: 82e8 fb7f a348 a6bf 33f0 bffe 70c3 dfbf
000000d0: 467c 6343 b130 a5bf f236 8821 85da c4bf
000000e0: f564 5c5b 1ac7 a8bf 925b 8cfa abc9 bfbf
000000f0: 115a 9408 773e c0bf 8b7b f1f1 62a9 bc3f
00000100: 0db8 0bbd 0ef6 a1bf 2690 e74c 98ab 713f
00000110: c61b 5952 e7e8 d2bf 99bc 8b88 729e a7bf
00000120: 5453 d74c b0f1 943f 606a a2db 40e0 eabf
00000130: 4d8c 3237 5733 65bf cf55 883a d725 eb3f
00000140: e54d 8301 b367 b4bf 59a1 5145 4521 c0bf
00000150: 87a1 cd53 1feb c4bf 0095 48aa df17 9b3f
00000160: 5676 064d 75cf b2bf c9e5 8b18 8a77 a0bf
00000170: 4078 2207 7fe5 60bf e8a3 da28 35fa 823f
00000180: 27dc e9ea 1136 f93f 7e62 5b52 76e0 afbf
00000190: 571c a5a6 b79c c4bf ee12 1a13 65c6 aebf
000001a0: 009d 34b1 e3d1 9ebf 713c a4d4 d2fa 73bf
000001b0: bebb 5d87 a335 bbbf c86e 6ab2 581c f53f
000001c0: b3fc a6ed 0609 bfbf 7429 ab2f 334d a43f
000001d0: e0ff 980d 2ce8 a6bf 5971 3465 a2cc 7fbf
000001e0: 9257 1daa a061 a23f 3ad1 c52c ebf5 d43f
000001f0: 8017 a03c 73aa f1bf 856d bf3f b294 c0bf
00000200: 1eaa 0ef8 a8b6 b33f 4ff3 2e34 8ef8 b5bf
00000210: 9ed2 31af 23cb aabf 3098 566b 543a 683f
00000220: 2609 26b5 7bec 9abf 437d 472f 921d b5bf
00000230: 38a4 fc9f 0445 82bf 3912 1275 6f00 c5bf
00000240: 0a86 65a7 b827 acbf 4bd9 ff74 0fdd b5bf
00000250: 966f 741b 17ca b3bf 320b 51cb 0c8e c63f
00000260: 55d4 1e15 6830 c2bf fae9 fcb6 4c0f c8bf
00000270: c08e 9774 cfa8 573f c06b d58e 1710 f0bf
00000280: de62 a7f3 dc62 fb3f c351 e573 c423 e5bf
00000290: 12bd 7a92 cb94 aebf 23ce 5c9c 4929 e2bf
000002a0: 3ac8 1eca 64f9 c13f 9acb 3703 9e57 a13f
000002b0: 5d39 e067 09bd f23f 5bc0 52a0 21c8 b0bf
000002c0: 94a0 1ee9 dd7f d2bf cca8 7828 f437 b3bf
000002d0: 1676 3af0 bcd1 6abf e006 24e2 97bc 6c3f
000002e0: 95d3 e4c0 4171 a6bf 35c4 850c 54c4 a7bf
000002f0: 71ec 4888 5b06 f93f a6fd 39e4 5f15 a8bf
00000300: 1e83 4245 2cc5 e63f 54ed 6fc5 93d5 913f
00000310: e129 206d e071 d13f 8584 89bb db26 a6bf
00000320: 1627 c258 12ef adbf 3a04 9d55 6fdf a2bf
00000330: 56a4 61f5 e505 abbf 0c92 4307 2754 dc3f
00000340: 9a6c 187a 8589 a7bf eec2 943d d0fb b3bf
00000350: 60e0 41e2 62d2 a9bf 8820 bfe9 0579 8a3f
00000360: 0b65 63f8 0378 e33f be2c 1ec8 ae43 b0bf
00000370: 2da2 066c 003a 96bf a6ee 5d2a 7f89 dabf
00000380: fa06 41e8 2e19 b8bf 33d5 a332 e96a e2bf
00000390: 7851 b069 5752 a93f 7341 a258 bced c9bf
000003a0: 22c9 a141 2780 f03f 5ce3 f3e2 2291 9a3f
000003b0: c19c 6ca8 e103 b1bf 859f 871c 4827 b7bf
000003c0: 75d0 0c84 170c c3bf 4ce6 af0b c49b f13f
000003d0: 3e29 fe9f 9cec cabf 5e27 50c1 f697 b2bf
000003e0: 78a5 b13e 02ff a9bf 9d6e 20e0 4073 a1bf
000003f0: 7954 22f1 ddfd c2bf 43ef 08a5 2f06 babf
00000400: 8f4e 82c6 3707 a0bf 2900 a377 cc42 d0bf
00000410: a84f 2be0 1bbb a1bf 611a d3c2 5915 acbf
00000420: d8a7 93a0 18f3 c3bf e99c 51fd d578 ac3f
00000430: a0f3 5270 3d75 a9bf ea26 aa3f af9a 943f
00000440: a797 ae97 e99c b1bf 43ae 5d5e 7db4 d8bf
00000450: e3f1 c660 2591 f73f b188 316a 75f5 f13f
00000460: 4335 497a fcf3 d1bf 4d58 35c2 cd8b 833f
00000470: 7cd4 1ca9 cf22 be3f 6462 ad02 9903 b2bf
00000480: 435d 8301 97e0 c1bf 707b 3624 5887 b7bf
00000490: 0d49 db20 e205 b8bf ac8a 36d7 8516 b0bf
000004a0: f782 b5a3 d6f5 67bf 1a72 bcc2 3e85 90bf
000004b0: fccd 7510 3678 dfbf 7b41 de1e c95e a3bf
000004c0: 22d8 52cf 56d6 afbf d059 536c fcd8 e3bf
000004d0: 80d9 dc33 4425 5f3f 56b7 af93 f737 ebbf
000004e0: 7a56 1978 255e ad3f 2048 7b9d 418c 81bf
000004f0: 3aee f2ff 99e6 b1bf f792 30e9 99d1 a4bf
00000500: 1632 50ab 9155 e3bf 0da1 b55c 39bc 98bf
00000510: cc76 7061 e947 9abf 615a cf0e 2620 a8bf
00000520: 3543 7c42 ede9 bfbf 4ec5 346d 90cb bfbf
00000530: ea4b 3f9d 0d8f a7bf 0081 1a1e 9fbc 613f
00000540: 30d4 b59b 9eb6 a03f 8575 6e00 c52a afbf
00000550: 6c42 2e28 822f efbf ab86 2a6d 9f82 e5bf
00000560: 6aec d64a 78b9 babf 76a1 60fa a705 e5bf
00000570: bf68 a18c 096c a9bf eed5 4449 16ef e6bf
00000580: e8bf b4e3 8eee e6bf ba19 434a 6376 85bf
00000590: 8c1f ab1f 7b2a b7bf 9046 a35f ce2c 89bf
000005a0: 1bed 4b78 d0d7 b3bf 6048 8cd0 6ed0 64bf
000005b0: e8f4 23b1 8ee6 813f 5ce8 8d3a 920a a2bf
000005c0: e4fd d454 8e5f 7dbf 912a c6d6 4613 efbf
000005d0: 40e8 c9c4 c20d b6bf 39c0 052b 95b7 e2bf
000005e0: ed26 a2ce 180f b1bf 0017 95b2 994d 69bf
000005f0: 1a03 04af 361c a9bf 1a0b 57c4 657c eb3f
00000600: a076 072a cde6 9dbf 8ff7 76f8 015e c4bf
00000610: 05de e831 b683 a7bf 50bb 39e0 cae6 85bf
00000620: 0176 6302 b887 a5bf 4f13 c844 5b84 b9bf
00000630: 27db 4182 38d4 b1bf 426d e4f8 514f b1bf
00000640: 2b45 820b 7196 f0bf 7cb2 d3e3 e183 9c3f
00000650: 5ca2 e58e 14ef c1bf 807a d9b0 4ec6 4cbf
00000660: dae3 05cc 2b55 b5bf 5523 310b 2705 e53f
00000670: 2e15 3770 0ddc 953f 569f dced eaea b2bf
00000680: 92f6 42d2 d08d 92bf 80a6 4121 a428 e33f
00000690: cefe 40be 5bf8 bebf e04e e583 2d55 e23f
000006a0: 38e3 cc02 30e9 b3bf 044b f2e3 cd41 e2bf
000006b0: 4e2f 0782 c884 9abf 3050 fcb0 c5a4 b3bf
000006c0: 1822 b0c4 1fa4 afbf c67e 1436 6ce5 92bf
000006d0: 805e d335 f8d8 5ebf 695e 7aa7 dacf b2bf
000006e0: fdb9 b2e4 4fba a7bf f431 3280 1f8e 913f
000006f0: 90a6 8d23 9a79 e5bf 0837 fd54 5b5e acbf
00000700: df39 ae7f f057 e7bf 1454 174c 5f00 afbf
00000710: a437 684f 6b36 a6bf f001 19e6 06e5 923f
00000720: 4d8e 3497 c8c4 e93f 4d3a a3be 13c8 b5bf
00000730: f5a9 168d e1dd f33f e1cb 6251 dca7 a7bf
00000740: 5f01 9a11 125d b1bf a442 f541 f9b1 debf
00000750: eed2 0c51 9e6e dbbf f131 5754 4904 eb3f
00000760: a73b cdd2 86ef 983f c85f 3ad6 7282 e4bf
00000770: d968 f987 a693 c8bf c050 e685 7aec 67bf
00000780: 02c7 71d2 8beb bcbf 22c4 ecc8 8c75 a2bf
00000790: b7de cf27 f31f a6bf f4c1 e10a 74c7 963f
000007a0: d037 f8cd 0d0f e83f e5e1 a1db 5685 953f
000007b0: aca6 66cb b555 e1bf d862 dc66 c224 933f
000007c0: 4ed1 12b8 ced8 b0bf 3397 20b1 0c00 d4bf
000007d0: 6392 a894 3f9c 9cbf 2335 7371 feec 93bf
000007e0: c757 2477 a216 a4bf e046 1356 ac9f 61bf
000007f0: 2cb5 ec2c 01d7 e7bf 29b0 8a5c fe70 a0bf
-0.014549713831927892 -0.09586040358171753 -0.3063980569165317 -0.08558271117600094 -0.05925694713149205 -0.053274387401011064 0.010676248795370602 0.009599416375512579
-0.05224050741130126 0.002812572869561957 -0.290089619079953 -0.8768412647552338 -0.6498365576539541 -0.6062038954481783 -0.05999433178325049 -0.6249854503071847
-0.00424917678518977 -0.0838203693886768 -0.012082144025353514 -0.03975243051998132 -0.029299103350487035 -0.23512804328626857 -0.01940407599327152 -0.07805007180517863
-0.04352293908409967 -0.4963037956038107 -0.041387118793629926 -0.1629187024813557 -0.04839403500791121 -0.12417101733113459 -0.12690627974434723 0.11195963293856274
-0.035080395295025914 0.0043140362963392295 -0.2954653076343984 -0.046130732696718364 0.020453219118127322 -0.8398746766791412 -0.0025879577093106732 0.8483692305769014
-0.07970732485710348 -0.12601533779821741 -0.16342536537127847 0.0264582584078612 -0.07347806101321316 -0.03216201352729404 -0.00206255731707386 0.0092662957279845
1.5757006813344192 -0.062259385636655104 -0.1610326350875961 -0.06010738237549683 -0.030097539606825485 -0.004877875859406009 -0.10628721289479778 1.319420525490317
-0.12123149206216759 0.03965148884670358 -0.044740082416410365 -0.00776351390529969 0.03590108944506122 0.32750968334518726 -1.1041138046434469 -0.1295378505009063
0.0770059209450342 -0.08582390569695274 -0.05233108056646539 0.0029575012983569446 -0.026292736941749294 -0.0824824681690091 -0.008920704014217504 -0.16407578674638204
-0.054990549501564415 -0.08540436369353192 -0.07730240268978003 0.17621002128188362 -0.1421022513510787 -0.18796690878828298 0.0014440561229713128 -1.0039287166061825
1.7116364972809417 -0.6606161368932181 -0.05972896731452172 -0.567539983172939 0.1404233920016525 0.033871591465774745 1.1711515481616381 -0.06555376209394252
-0.28905437245931265 -0.07507253635472749 -0.0032738390162439053 0.003507897040550087 -0.04383283118878648 -0.04641974118101936 1.5640521358134516 -0.04703807507484763
0.711568961403916 0.017416294980632088 0.27257548004913984 -0.043265215532991376 -0.058464597067610466 -0.03686092300495898 -0.05277937527063929 0.442636258214663
-0.04597107997343493 -0.07806111815876779 -0.050433244818976375 0.012926145740394426 0.6084003306706632 -0.06353275666895095 -0.021705633729341912 -0.41464213502306746
-0.09413426561607344 -0.5755506505071594 0.04945634045739927 -0.20256761863539516 1.0312874377965007 0.02594427595338132 -0.06646547662659243 -0.09044314095046786
-0.14880651424175864 1.100528760578885 -0.21034581958913096 -0.07263128490026591 -0.05077368750864769 -0.034082438811507056 -0.14837240480543182 -0.10165689257786163
-0.0313050679989405 -0.2540770691230159 -0.03463065253677594 -0.05485039237241974 -0.15585620728171423 0.055609404728608265 -0.04972259517805999 0.0201213247878859
-0.06880054429220071 -0.38601621833251815 1.4729360370976046 1.122426428621605 -0.28051673833836704 0.009543998231191031 0.11771867636419303 -0.07036739650119156
-0.13966643880733373 -0.09190894016363216 -0.0938397722450512 -0.06284367088532389 -0.0029248420884616616 -0.016133289943455954 -0.4917121086830034 -0.03783253194626731
-0.06218215256505767 -0.6202375522360004 0.0019009748497872125 -0.8505819210529164 0.05735890475322676 -0.008568298929649443 -0.06992495058778384 -0.04066163035921549
-0.6041954370462601 -0.02415551784852803 -0.025664946148132015 -0.047120274837358485 -0.12466318963221286 -0.12419989267507 -0.04601328415414925 0.00216513707785293
0.03264327669868583 -0.06087318067805384 -0.9745493683604542 -0.6721951610708933 -0.10439254595887495 -0.6569404497322882 -0.049652384201821935 -0.7166854315789217
-0.7166208693870404 -0.010479713157462867 -0.090491957885318 -0.0122924921928729 -0.07751181542328249 -0.0025407947872589237 0.008740534573457429 -0.0352369019010019
-0.007171207410749034 -0.9711031145864856 -0.08614747337733863 -0.5849099960596568 -0.06663661045800114 -0.0030887605577473165 -0.049043377746789754 0.8589352450147516
-0.029200750055557223 -0.15911888725343856 -0.04592675551651485 -0.010694107978648809 -0.042051077167098334 -0.09967585019337587 -0.06964448146923684 -0.06761658026191689
-1.036728901821628 0.02784684136433889 -0.14010865189927102 -0.0008781322700988775 -0.08333085757284611 0.6568789690582927 0.021347246145315406 -0.0738970595090199
-0.018119108994815898 0.5987110757389047 -0.12097714800710976 0.5728976799095697 -0.07777690952651717 -0.5705327465132943 -0.02589715283993082 -0.07673297472894158
-0.06179904247261819 -0.01845330314711082 -0.001882784264401055 -0.07348410214250979 -0.046343323390249914 0.017143718909709407 -0.6710940069580875 -0.05540738499131065
-0.7294847959290641 -0.06054971507879983 -0.04338393539738597 0.01845179347424336 0.8052714303234524 -0.08508418468702779 1.2416701804419266 -0.04620254987221251
-0.06782639436460645 -0.47961265031066547 -0.4286266128067798 0.8442732474591691 0.024351221672357728 -0.6409238990918249 -0.19200593604438757 -0.0029203789737924646
-0.11296914947322637 -0.03605308487602367 -0.043212507829534834 0.022245228923965812 0.751837637218836 0.021016461520476332 -0.5417126629519848 0.01869491341412552
-0.06580821985227667 -0.3125030259856089 -0.027939790199655323 -0.019458747553291588 -0.03923518852586443 -0.0021513334219002006 -0.74499567770332 -0.03211207275066414
