src/machine_learning_course/weights/w2.npy (npy, 8128 bytes, 1 tensors)

array f8 [1000, 1]
-0.05845140900088172 -0.275236014084227 -0.012495270334335529 -0.37506529679810896 -0.07011700076934083 -0.024957669165093715 -0.030797904620345144 0.04056124988868448
-0.01706534199119058 -0.019706423152760923 -0.2954121847129726 -0.7559079028066106 -0.5610049929838918 -0.6503291910642185 -0.06968929237078339 -0.5310619788920915
-0.02590409922427266 -0.1481863250034101 0.0630236343685134 0.04447270104703494 0.06318473516451976 -0.010212001802072334 -0.017759127328822795 -0.18144416046207246
-0.004516346541651339 -0.47945579488616397 0.06428455094449263 -0.07627016186092257 0.0065553023272003075 -0.4702717291987476 -0.16074444234330523 -0.24659460499193392
0.06499142827594731 0.03313698162296041 -0.6364662605927839 -0.05495646558325462 -0.05770756678148785 -0.7011022122018674 0.03485642080107075 -0.6709614018689265
0.016529850808491016 -0.1641246916171895 -0.11148822502546998 -0.07135461582825538 -0.008481351396193949 -0.07121442027283201 0.020039456313126647 0.0012933670158076227
-1.1719195424674522 -0.0003664735122762136 0.0290425305104422 -0.10919252221423875 -0.06899707627387905 0.03022108412233966 -0.013200212644165557 -0.9918706960877894
-0.0844431073220941 -0.44872083638707533 0.054843402806912175 0.01695646996398528 -0.013858801077326385 -0.26773123620716127 -0.9810362039138539 -0.09820050435241677
0.015900957935858356 -0.020716199876314456 -0.14463536145807473 0.006725818600152495 -0.07002384317382315 -0.2518726716815942 -0.03571730021593379 -0.08947842459268106
-0.021254049703678043 0.020660428874499655 0.0015776778670692955 -0.122547613577953 -0.1900471431791551 -0.2793430144207009 -0.06951563184092377 -0.7857406580982483
-1.3155071895465325 -0.6148197844477234 0.053710623630843876 -0.4409580665459456 -0.11385326030316267 -0.0031020606837889597 -0.8907308174230624 -0.02293301323884954
-0.3820190444890339 -0.04182862506716638 -0.6306215269133912 0.051201760898026846 0.0338052685555188 0.01212007302832761 -1.1862076991974906 -0.22973189716935982
-0.5438617200706909 -0.43711530038548657 -0.41026121891615663 -0.15357641668452301 -0.04069692099103482 0.028711453220966035 -0.13308597213702092 -0.33125750823543004
-0.0563235822606155 -0.17176194872842182 -0.03119061260939182 0.005149790977243995 -0.54456803332731 0.07324984653094395 -0.059977393431462 -0.4388497478093757
-0.694995129600094 -0.48263824812552814 -0.016750736106178006 0.03216210353896843 -0.8091194185752741 0.06689968152382673 -0.15805503976144492 0.036145009832240345
-0.5029009939818827 -0.8350209594097828 0.03375861889718318 -0.13820578611468678 -0.015097199851262573 -0.041467394872283 -0.20116556023114063 0.03139111709577059
-0.11036548232829355 -0.14627840205533119 -0.0019887483785440696 -0.6539170795488524 -0.2615816989315306 0.057919408199929516 0.013591690211392213 -0.011433869331983124
-0.02985841703518151 -0.37839488079369393 -1.1126132329681482 -0.8510544176896363 -0.041614366664796155 -0.14381712657365808 -0.6346312293139663 -0.14412035748814522
-0.0363931325011293 0.02333797409262327 -0.23990935365965485 0.0647675236516506 -0.0017400417897301481 0.029498673268598664 -0.5814208321201548 0.04254324018074338
-0.04447314500702242 -0.6746564476240314 0.015494959410237333 -0.8555809039160511 0.0034063146359210065 0.04938029450175595 -0.04812511703748191 -0.034642136204106506
-0.5243219813456016 -0.012201483416691195 -0.03233389779966944 -0.09253785426441387 0.014901184222175578 -0.3396082506516547 0.0055810077811570035 0.05028203301205443
0.029980726897799903 -0.2401146335661721 -0.9299198810793241 -0.5417069617168714 -0.2316410297255537 -0.6711086452211892 -0.13143247094551422 -0.5970428596756194
-0.5987946993415981 -0.05732445652736724 -0.2850705440315142 -0.0003907537130832528 -0.08180493037685192 -0.0630984924433896 -0.0390898057826048 0.0467042520056542
-0.015920957422392034 -0.9799817177211706 -0.03236281532097209 -0.5297824911123871 -0.008251359216863137 -0.024844130023850712 -0.12372427947528948 -0.708653159646372
-0.008962078265852927 -0.2675524475942404 -0.0010415800577656675 -0.05950811530817399 -0.056826350392822966 -0.04009082268400741 0.010407347626884403 -0.07644897708016857
-0.8973210738803131 -0.05442183580408946 -0.0982283820634858 -0.023375091999727753 0.0307899950477432 -0.5485639511537734 -0.16237331120734094 -0.06377469629718988
-0.1701100681451549 -0.4762191385367074 -0.20172304369262564 -0.43294457150697724 0.04403853694408631 -0.4661223664212909 0.07106070957620157 0.035117496207364964
-0.43814534968144553 0.03062371129059037 -0.10367500460568814 -0.16999839296291605 0.06636627031053749 0.05688059901473842 -0.5701660522368815 -0.026773373348433598
-0.6290117021111006 -0.04654025287807404 0.015815332526803498 -0.49161576936621865 -0.6016413134075876 -0.2230894486314483 -0.9637967865963176 0.015917739307487133
-0.11270148259784768 -0.5417658735883296 -0.37138891476361163 -0.659023785543679 0.038565775364255546 -0.5309810014425103 -0.14442910316185897 0.034874859412351605
-0.003144221905949982 0.025696448363705438 -0.06674655678129746 0.0455593071389149 -0.5847411231649937 0.04641257855323807 -0.44838827689123606 0.036945519247138056
-0.014529814498581844 -0.7659615200113944 -0.10137877564879433 0.028873311156118985 0.03927895356335268 -0.044357678892388654 -0.609076880050244 0.001319127943910525
00000000: 6cb8 20d4 57ed adbf e514 cb83 779d d1bf
00000010: 8d73 86cb 1e97 89bf c031 e7df 1101 d8bf
00000020: 42ab 3211 30f3 b1bf 0bd4 64d3 808e 99bf
00000030: 9ed2 8464 7c89 9fbf 2079 83b3 71c4 a43f
00000040: fe26 fdb6 9379 91bf da56 d9ab eb2d 94bf
00000050: fea7 0b82 08e8 d2bf 71f4 2ac5 6530 e8bf
00000060: d645 38be c0f3 e1bf 9528 e829 7fcf e4bf
00000070: 5a28 9d4f 28d7 b1bf cbb2 efb0 75fe e0bf
00000080: ad9a 00ac 9a86 9abf 4852 cdfd c4f7 c2bf
00000090: 35e2 7c20 5122 b03f 41a4 1f39 20c5 a63f
000000a0: 2b56 23f3 df2c b03f e6fb 21ae 07ea 84bf
000000b0: e2c7 54dc 722f 92bf 300d 9eef 8f39 c7bf
000000c0: 00c9 198b bb7f 72bf 047b ba5b 67af debf
000000d0: 0bd4 f1cb f374 b03f 2571 dafa 7086 b3bf
000000e0: 4080 c591 bbd9 7a3f 5a16 4998 ee18 debf
000000f0: 9d6a 701d 4693 c4bf 02bb e779 6990 cfbf
00000100: 8a2c f73a 47a3 b03f 6fb0 b798 54f7 a03f
00000110: 051c c87d ee5d e4bf 2085 c4fc 4023 acbf
00000120: d6cf 1da0 d88b adbf c1ed 11e8 6d6f e6bf
00000130: 6edc ca66 b3d8 a13f a6f8 bc0b 8478 e5bf
00000140: 825a 8582 33ed 903f 0220 7bb3 0902 c5bf
00000150: 8a9c 5f08 7e8a bcbf fda7 66cd 4b44 b2bf
00000160: a7f4 fab6 ab5e 81bf 424e 13b6 1b3b b2bf
00000170: 205e fa25 3985 943f 0032 3742 c630 553f
00000180: 4c0e c7b4 2ec0 f2bf 0005 05c0 6704 38bf
00000190: f014 f13a 53bd 9d3f a4be e087 0af4 bbbf
000001a0: 76ad 1dda caa9 b1bf 5409 d29f 46f2 9e3f
000001b0: a801 db8c b608 8bbf 96d9 319d 67bd efbf
000001c0: dd2d 5240 109e b5bf 873d 5499 d7b7 dcbf
000001d0: 7601 ea3a 6f14 ac3f c7be cd6f 095d 913f
000001e0: 7870 1ccb 0062 8cbf 7727 e831 8222 d1bf
000001f0: 4d10 8009 a664 efbf 2ff3 a412 ab23 b9bf
00000200: 6803 3d39 5748 903f a05b dda3 a036 95bf
00000210: 735e a759 6983 c2bf 54e0 d22e 888c 7b3f
00000220: 802e 5f24 15ed b1bf dc3a e88d ae1e d0bf
00000230: f25e a8b8 8949 a2bf 17bb 52db 0ee8 b6bf
00000240: 9c17 8a21 9fc3 95bf d267 59e9 0128 953f
00000250: d58f eeb5 42d9 593f cb28 85c8 475f bfbf
00000260: b28b 53fc 7653 c8bf cf63 d385 c1e0 d1bf
00000270: 8e4a 51c5 c6cb b1bf 7f6c b597 c924 e9bf
00000280: 6c15 4c44 510c f5bf 3060 648a 9aac e3bf
00000290: 2e6d e277 f57f ab3f fc38 ae2e a838 dcbf
000002a0: f888 8bbd 7c25 bdbf 4091 fc25 7e69 69bf
000002b0: 82e2 4bea dd80 ecbf 5c39 7077 c07b 97bf
000002c0: 78e4 a101 0073 d8bf d676 66c1 8f6a a5bf
000002d0: 24e4 4732 0d2e e4bf 5ef9 1b01 1e37 aa3f
000002e0: 40c4 c195 ec4e a13f b61f 41aa 68d2 883f
000002f0: e810 a5ec b4fa f2bf 3060 98d4 da67 cdbf
00000300: 61ff a7b1 5067 e1bf 0f29 ef73 b2f9 dbbf
00000310: a2f7 8345 b841 dabf 0f67 8c5b 64a8 c3bf
00000320: dea5 6811 3ad6 a4bf 0432 6b02 8966 9d3f
00000330: 7d43 f10c f608 c1bf 673d 1bb1 5233 d5bf
00000340: ee16 9bcf 71d6 acbf b62e 3ea8 4bfc c5bf
00000350: a0ee 6594 6ef0 9fbf 0088 417d f217 753f
00000360: 8acf b2f0 196d e1bf 9394 497f 80c0 b23f
00000370: 3d2d 935e 5bb5 aebf 52be ac40 1d16 dcbf
00000380: ba5f 106d 663d e6bf 36dd df88 8be3 debf
00000390: 3233 0adf 1a27 91bf b1a9 bd1d 8d77 a03f
000003a0: dadb 2a68 4ee4 e9bf 6ff5 4168 5620 b13f
000003b0: 4227 5fc5 253b c4bf 9140 4946 9981 a23f
000003c0: 06e6 48d3 c317 e0bf 4877 04e0 7db8 eabf
000003d0: 1839 3e48 cf48 a13f af82 bd29 bab0 c1bf
000003e0: 0492 fadc 47eb 8ebf de4e a7e1 363b a5bf
000003f0: 301b 2307 cbbf c9bf 015b 9f1a 7f12 a03f
00000400: be10 3589 e940 bcbf 292a 782c 40b9 c2bf
00000410: 80c1 dd27 b54a 60bf 2da9 de82 e3ec e4bf
00000420: 9a27 892a c1bd d0bf 4774 0bd8 9ca7 ad3f
00000430: 9870 a4c7 f5d5 8b3f 12e5 c7f6 a36a 87bf
00000440: 14ab b472 3493 9ebf 1de5 7e29 9f37 d8bf
00000450: d31e 8b88 43cd f1bf 69fc 6279 d63b ebbf
00000460: 65f4 bc6f 7a4e a5bf f088 9e7f 9968 c2bf
00000470: 758f dd26 e64e e4bf 8cb9 0c2f 8972 c2bf
00000480: 605e c8e3 1ea2 a2bf 1d4c eeed e8e5 973f
00000490: f181 fc85 59b5 cebf 373f edbb 9a94 b03f
000004a0: 25f7 27a5 4382 5cbf 3d28 db73 e634 9e3f
000004b0: da69 65dc ff9a e2bf 2dfd 7b42 3ac8 a53f
000004c0: 87fa b51e 2fc5 a6bf 8595 521e c996 e5bf
000004d0: e8c8 5b3f d2bb 8f3f 90d9 2c34 eb60 ebbf
000004e0: 06e1 c13e 8fe7 6b3f 2e5e e7bb 5f48 a93f
000004f0: a195 95f7 daa3 a8bf 81d4 1e34 9dbc a1bf
00000500: 4781 4ee4 3ec7 e0bf e024 e661 17fd 88bf
00000510: 601d 3493 118e a0bf f929 b591 8fb0 b7bf
00000520: 8650 3f17 8384 8e3f 480a 803e 24bc d5bf
00000530: 8572 615e 1cdc 763f eaf0 b90e 91be a93f
00000540: 103b 2586 44b3 9e3f ff96 3a89 13bc cebf
00000550: 5859 a456 e7c1 edbf 13dd 92d6 a955 e1bf
00000560: 4da0 8acb 69a6 cdbf 4436 69d6 b879 e5bf
00000570: 4bf6 2b7a c7d2 c0bf 4ebf 93a0 f91a e3bf
00000580: 1317 5680 5329 e3bf 6a8f 1794 a159 adbf
00000590: 20c5 ea85 983e d2bf 00b6 216b c29b 39bf
000005a0: 3bc1 9efc 2af1 b4bf 97a4 7809 3927 b0bf
000005b0: 81f5 e23a 9403 a4bf 4098 e5a5 9ee9 a73f
000005c0: 93fc cc5d 954d 90bf 654a 899e 025c efbf
000005d0: c3f3 d1e2 db91 a0bf 8f46 2a69 faf3 e0bf
000005e0: 772e dfaf 16e6 80bf 8ecf cc57 bd70 99bf
000005f0: cd49 11f6 64ac bfbf 6b6c 1c64 49ad e6bf
00000600: 3bc0 72c8 b55a 82bf f572 184d 941f d1bf
00000610: 0078 3112 b410 51bf 9cbe 3002 d977 aebf
00000620: d8f6 f9e8 5718 adbf 0d58 98c8 c886 a4bf
00000630: e887 908d 7250 853f ec39 5f00 2992 b3bf
00000640: 3f7b 4aaf dab6 ecbf 7406 efc9 2ddd abbf
00000650: 166d 80c8 7e25 b9bf 3e23 b8de a3ef 97bf
00000660: eca2 1897 6987 9f3f 3a0a bffc d58d e1bf
00000670: 327b b00e a6c8 c4bf aea4 e8da 8953 b0bf
00000680: caae b3ad 2ac6 c5bf 18a5 6fd6 5f7a debf
00000690: 3934 c189 0fd2 c9bf d79a e625 5db5 dbbf
000006a0: 1e88 e017 388c a63f 2eab ede7 f2d4 ddbf
000006b0: 070c a9df 0831 b23f 35c1 74a3 ebfa a13f
000006c0: c7ae f1ca 920a dcbf 1ca3 e679 d25b 9f3f
000006d0: 39af 31f2 718a babf dffa 12e1 81c2 c5bf
000006e0: a48f 8a40 61fd b03f 5223 1731 741f ad3f
000006f0: ddb2 74e0 cc3e e2bf 2e90 bdab 7a6a 9bbf
00000700: 84ca 2b26 dd20 e4bf dd27 1ec0 1fd4 a7bf
00000710: 2e75 e9ff e431 903f e80c e8fc a176 dfbf
00000720: 2742 a048 a540 e3bf 0035 faee 318e ccbf
00000730: 7379 cd5b 6cd7 eebf f0f4 0167 bd4c 903f
00000740: 94ed f71d 01da bcbf e9d2 a462 2556 e1bf
00000750: d96c c002 d6c4 d7bf 6d47 c60c b916 e5bf
00000760: 7164 deaf e4be a33f ecc5 7fde cbfd e0bf
00000770: 98dc 5521 a77c c2bf 24de 4119 1edb a13f
00000780: fbcc 3c48 e9c1 69bf 40c2 6175 2b50 9a3f
00000790: 2e0c 7f66 4d16 b1bf 644f 61ac 8c53 a73f
000007a0: aed6 1304 33b6 e2bf 5bb4 04b6 63c3 a73f
000007b0: f616 4abe 64b2 dcbf 8ee6 cce9 85ea a23f
000007c0: d0f3 b4b0 cec1 8dbf 3d30 cebb c182 e8bf
000007d0: 348b eb9d f5f3 b9bf 7630 921c f790 9d3f
000007e0: 458f f3f9 5e1c a43f b5ab 56b8 0cb6 a6bf
000007f0: ae18 12cc 8e7d e3bf cca5 36d8 d29c 553f
