src/weights/b.npy (npy, 8128 bytes, 1 tensors)

array f8 [1, 1000]
0.0 -0.4531222162754001 0.0 -0.0021556731790817116 0.02769132800512857 0.0 -0.02720704113054609 0.0
-0.014855358966527227 -0.00977297552719555 -0.007926675969341893 0.0 -0.008270270090655375 0.0048207951768658875 0.0 0.015086535182751593
1.009952710653686 -0.0028165235520939695 -0.003477140940757201 0.0 0.057020017992182634 0.02724681157616011 0.08075422166490176 0.3657517470193831
-0.0063524932051591335 0.18786446060163373 0.8873188954098797 0.14107863318051772 -0.04389456847126673 0.0 0.007150432866914748 -0.09252014708236016
0.9929066438827782 0.013240551956933988 -0.0068761438181579974 -0.0033961668107233473 0.09624350528064364 -0.006040758076641592 -0.0012398308971256907 0.06633083568532133
0.018033843129043475 0.0 0.05375163861225267 0.0 -0.0071747376184970405 0.0 -0.41637589281676346 0.0
0.14019328193085592 0.0 0.3834691781912106 0.1943850401630799 0.0 -0.001019512190508081 0.0 0.42237135391324016
-0.004561476807190359 -0.010868969763479678 -0.59712917193075 0.5179767223536411 0.061922963781028295 0.0 -0.2697275351032301 0.09517406712621064
-0.19176945793975353 0.0 -0.022979653196174153 0.13541758012836472 0.0 -0.00042890273456111804 0.1997230885175565 -0.004964446550716693
0.0 -0.024613226350825666 0.24232010704980955 0.220667602027294 0.0 -0.0010790850082828785 -0.01619657187605199 -0.004510732880227389
0.0 -0.024512629565841222 0.0 0.6039140845266111 0.0 -0.008057656854271466 -0.006878040789394768 -0.008474121752275516
-0.30514868351403523 -0.0008451270920920998 0.18728533278107015 -0.009236808150915373 -0.01116289109465825 0.0 0.2924570133558596 0.0
-0.1101097586624094 0.0 0.08079658323109483 0.1181765886996467 -0.002179980482083697 0.0 0.0 -0.035314831912651286
-0.004443650268252751 0.0 0.0 -0.009800068868099518 0.0 0.0 0.03784624973001415 0.07567356358714453
-0.05272430177022558 0.0 0.0806974358339567 0.0 -0.006151583337535559 0.0 -0.0056485939677867955 0.0
-0.0017436145597021532 0.0 0.0 -0.0016296022121459867 0.0 0.0 1.2039200502258858 -0.02751789150710098
0.07728085535972581 0.04376193455669513 -0.00616419532096305 -1.3106764791571668 -0.0009848519546356972 0.0 -0.1366958096057415 0.5414047126274822
0.22456472459525467 -0.817091275894312 0.025862473305800108 -0.01164072815941712 -0.6095545111418669 -0.0018594024448333774 0.0 0.0
0.0 -0.0018735609753324826 -0.41836937748125536 -0.19228058945185447 0.2259393159501805 0.02579647397027532 0.0 -0.002799365532493907
-0.005347175985861265 0.17878026152226695 -0.002965328138223947 0.0 -0.4277385625780585 -0.0077315469726495865 0.0 0.0
0.0 0.0 -0.4154437398475157 0.0 0.14060880830901415 0.0 -0.00025632885157883995 -0.0017301535198656777
-0.3911951112137258 0.0 -0.07993449484076383 0.0 0.2600160598212585 0.0 0.0 0.0
0.19473604385035362 0.06685141596080171 -0.10561322347363473 -0.0024432482741337446 0.0 0.0 -0.01112123091876364 -0.008303022280694608
0.0 0.26970666822385325 0.0 -0.0019958094963212426 -0.4863602551556786 -0.008728654996630081 -0.0003081892392339212 -0.35607748662142596
0.11486614640425444 0.07850779432732893 0.05727740205503881 0.0 0.0 -0.0023151292187012468 -0.0018301686250418111 0.033579712731664275
9.581892436925797e-05 -0.002008372410057035 -0.0016935661878895638 0.01740729386651213 -0.0011054877223543847 0.31955630984065314 0.13011488860335357 -0.008561933176659903
0.523887620916568 -0.000612085901057105 0.25170155242992504 0.27233183690753027 0.029875528731734928 -0.001782947834444575 0.1596333604322576 0.40302878749438875
0.0332328061142427 0.02998746556806874 -0.008026130881334179 1.1166896393520984 0.0 0.30895516769826603 0.07737952692274871 0.0
0.004269829696266156 -0.4722736388257813 0.10750026696596099 0.29286808804488534 0.0 -0.00032011494281053985 0.0 -0.004100427413871968
0.07103777331608158 -0.003839003688166629 0.022466362365209436 0.15092362452464045 -0.502259720452105 0.03596501023491602 0.03872903797390253 0.4536252158825778
-0.011338844100418648 0.1862382589277913 0.19556753270384755 -0.24919092322564038 -0.050849624255085185 0.0 0.09049235531527978 0.0
0.09127727783198525 0.11437746222157297 -0.011167423348326943 -0.004233879175535563 0.0 0.0 -0.0009337741543996212 -0.005775571082608257
00000000: 0000 0000 0000 0000 c59b ff52 f4ff dcbf
00000010: 0000 0000 0000 0000 f0b9 c239 c6a8 61bf
00000020: cdca a890 1d5b 9c3f 0000 0000 0000 0000
00000030: 48a9 819f 29dc 9bbf 0000 0000 0000 0000
00000040: 7ddd 7387 7c6c 8ebf 6ef9 3092 da03 84bf
00000050: 683b 6f70 dc3b 80bf 0000 0000 0000 0000
00000060: 7430 8cdc 00f0 80bf b272 015a f8be 733f
00000070: 0000 0000 0000 0000 fa4b c279 b0e5 8e3f
00000080: e339 6c2c c428 f03f 41d5 6d91 ad12 67bf
00000090: a7e9 f8d3 177c 6cbf 0000 0000 0000 0000
000000a0: 96cd fc50 ba31 ad3f 323d 8f92 96e6 9b3f
000000b0: 608f 1005 4fac b43f a7cc f903 7a68 d73f
000000c0: 480c 0769 1205 7abf 67ae 2e51 f10b c83f
000000d0: 9d10 9d98 ea64 ec3f b45c d659 dd0e c23f
000000e0: 32bc 1c50 5979 a6bf 0000 0000 0000 0000
000000f0: 02df 0cb5 c549 7d3f cb99 f07d 66af b7bf
00000100: 13a5 6e27 e4c5 ef3f cd91 16cd dc1d 8b3f
00000110: 4c32 25cd 282a 7cbf 6d3b 482c 47d2 6bbf
00000120: 11fd a113 6aa3 b83f 6396 1da6 31be 78bf
00000130: c166 f749 3a50 54bf 2c1c fcc1 0efb b03f
00000140: 8b7c d7b9 7677 923f 0000 0000 0000 0000
00000150: d65e e4b3 5585 ab3f 0000 0000 0000 0000
00000160: 5a78 dcf6 4163 7dbf 0000 0000 0000 0000
00000170: 4669 9f12 e7a5 dabf 0000 0000 0000 0000
00000180: 0d87 817c daf1 c13f 0000 0000 0000 0000
00000190: 5abc d64e c28a d83f 6c81 2ae7 9be1 c83f
000001a0: 0000 0000 0000 0000 7ddf 07e1 24b4 50bf
000001b0: 0000 0000 0000 0000 61c6 f4db 2108 db3f
000001c0: a961 551b 0eaf 72bf 2222 676d 7842 86bf
000001d0: a5c3 1da3 ae1b e3bf 2224 53eb 4393 e03f
000001e0: 782f 9fe0 5db4 af3f 0000 0000 0000 0000
000001f0: 1657 8647 3743 d1bf 8d00 bce1 535d b83f
00000200: a087 1ccf e68b c8bf 0000 0000 0000 0000
00000210: 49d0 cd6b fa87 97bf 6d36 fafe 5c55 c13f
00000220: 0000 0000 0000 0000 35ba d537 cb1b 3cbf
00000230: c031 b8b2 8690 c93f 71c4 3f79 9955 74bf
00000240: 0000 0000 0000 0000 0943 e7a8 3534 99bf
00000250: 6898 7863 5804 cf3f 713a ff02 d63e cc3f
00000260: 0000 0000 0000 0000 71cf 7db4 02ae 51bf
00000270: cd50 0f8a d595 90bf ea9f 39a3 d879 72bf
00000280: 0000 0000 0000 0000 6208 4cb9 d619 99bf
00000290: 0000 0000 0000 0000 a056 54a1 4353 e33f
000002a0: 0000 0000 0000 0000 2634 5f65 8880 80bf
000002b0: 591d 0404 262c 7cbf 1d88 4e5e e15a 81bf
000002c0: 1a0e 0758 8e87 d3bf 8815 5a9c 70b1 4bbf
000002d0: 9757 a83d f7f8 c73f 9ebd 6b67 bfea 82bf
000002e0: 2964 71e1 91dc 86bf 0000 0000 0000 0000
000002f0: 265a f69e 9db7 d23f 0000 0000 0000 0000
00000300: a3ed 6c34 2730 bcbf 0000 0000 0000 0000
00000310: ff28 9bba 15af b43f d429 9e27 d240 be3f
00000320: 2f06 0c1c c0db 61bf 0000 0000 0000 0000
00000330: 0000 0000 0000 0000 81d4 4120 c914 a2bf
00000340: e56b 3b49 8133 72bf 0000 0000 0000 0000
00000350: 0000 0000 0000 0000 18d9 4bfa 0e12 84bf
00000360: 0000 0000 0000 0000 0000 0000 0000 0000
00000370: cfba bb69 9560 a33f da4f c7b8 575f b33f
00000380: b077 9dff adfe aabf 0000 0000 0000 0000
00000390: 9e24 c74f 96a8 b43f 0000 0000 0000 0000
000003a0: b2a7 0d14 6732 79bf 0000 0000 0000 0000
000003b0: d8ab c2e5 fa22 77bf 0000 0000 0000 0000
000003c0: 8e21 b0e0 3f91 5cbf 0000 0000 0000 0000
000003d0: 0000 0000 0000 0000 35db 390d 0cb3 5abf
000003e0: 0000 0000 0000 0000 0000 0000 0000 0000
000003f0: 7080 abab 4143 f33f 6dbe 4f70 a62d 9cbf
00000400: 667e 609a adc8 b33f 071e 76db f667 a63f
00000410: 2680 f494 a03f 79bf 02dd 59e6 87f8 f4bf
00000420: b9a1 f0bb c422 50bf 0000 0000 0000 0000
00000430: 2de2 e08f 3f7f c1bf 7f54 d4f9 2f53 e13f
00000440: 1866 fc71 89be cc3f f503 7a9a 9c25 eabf
00000450: 3118 2b34 b17b 9a3f 1778 f815 18d7 87bf
00000460: 8979 4f76 7881 e3bf 8dcd 332c e676 5ebf
00000470: 0000 0000 0000 0000 0000 0000 0000 0000
00000480: 0000 0000 0000 0000 166d 6ec7 48b2 5ebf
00000490: 0083 7b5a 90c6 dabf f9f7 ac7d a69c c8bf
000004a0: 4d7d 715a 94eb cc3f 28c1 3710 646a 9a3f
000004b0: 0000 0000 0000 0000 bdea 2bed b1ee 66bf
000004c0: 4281 c39f ebe6 75bf 8a48 3488 45e2 c63f
000004d0: 3bc1 046c be4a 68bf 0000 0000 0000 0000
000004e0: 1fb1 6090 1160 dbbf 2afe 5156 1dab 7fbf
000004f0: 0000 0000 0000 0000 0000 0000 0000 0000
00000500: 0000 0000 0000 0000 0000 0000 0000 0000
00000510: d445 fe56 a196 dabf 0000 0000 0000 0000
00000520: 6dbe 9b2c 78ff c13f 0000 0000 0000 0000
00000530: 556c d808 7ccc 30bf 4683 3b32 ca58 5cbf
00000540: 7d27 4138 5709 d9bf 0000 0000 0000 0000
00000550: 0dd2 2949 9676 b4bf 0000 0000 0000 0000
00000560: 527e 5766 1aa4 d03f 0000 0000 0000 0000
00000570: 0000 0000 0000 0000 0000 0000 0000 0000
00000580: c947 d855 1ced c83f 0a31 3ea5 2c1d b13f
00000590: a52a d8dc 7709 bbbf ae84 deed dc03 64bf
000005a0: 0000 0000 0000 0000 0000 0000 0000 0000
000005b0: 96e6 b258 bac6 86bf 9574 3ac9 2c01 81bf
000005c0: 0000 0000 0000 0000 6e36 e2c1 df42 d13f
000005d0: 0000 0000 0000 0000 b1fd 8010 8459 60bf
000005e0: 56f1 7dc3 8620 dfbf 6d1e fd3d 54e0 81bf
000005f0: bfd7 17b4 8e32 34bf b360 f839 f9c9 d6bf
00000600: 524c 3926 de67 bd3f e2f1 1d39 1619 b43f
00000610: dca1 40b1 7653 ad3f 0000 0000 0000 0000
00000620: 0000 0000 0000 0000 f782 f888 2df7 62bf
00000630: e58d 0199 48fc 5dbf 71af fb2f 5c31 a13f
00000640: a51b 0596 4c1e 193f 1864 38ba dc73 60bf
00000650: d88a ffd8 54bf 5bbf 3060 79b7 37d3 913f
00000660: 76e7 4567 c01c 52bf 41bf ff4e 9c73 d43f
00000670: 4615 a3cb 9aa7 c03f 50d4 df37 eb88 81bf
00000680: 7fb5 d3f8 afc3 e03f 197c b476 8c0e 44bf
00000690: 477e 02d4 e01b d03f 505b 4b83 e26d d13f
000006a0: 7efe 69cb b097 9e3f 7c26 eca8 3936 5dbf
000006b0: bb1c 34af dd6e c43f c0a2 6841 39cb d93f
000006c0: 6c78 d4ee e303 a13f fd7e 9ebf 08b5 9e3f
000006d0: b8a1 300d 0170 80bf ecc9 8cf4 f5dd f13f
000006e0: 0000 0000 0000 0000 906e 4ce5 ebc5 d33f
000006f0: 465e 8309 25cf b33f 0000 0000 0000 0000
00000700: bdaf 7aae 3d7d 713f e341 6136 bb39 debf
00000710: 2c19 ee32 2385 bb3f 1d78 0ccb 59be d23f
00000720: 0000 0000 0000 0000 6654 d835 a3fa 34bf
00000730: 0000 0000 0000 0000 9075 461a 9ccb 70bf
00000740: ec58 2c11 882f b23f 61da 4669 f972 6fbf
00000750: f081 790e 6c01 973f 7b78 c31f 7751 c33f
00000760: 9b13 2efa 8212 e0bf fcbe 847d 016a a23f
00000770: a7c4 01df 4ad4 a33f b9d2 b60e 3208 dd3f
00000780: c998 afe4 d138 87bf 97ee adbf a7d6 c73f
00000790: f9ab 8f5e 5b08 c93f ff69 dbf8 7ce5 cfbf
000007a0: 6c03 6142 f608 aabf 0000 0000 0000 0000
000007b0: c9fc 9dca 812a b73f 0000 0000 0000 0000
000007c0: 2002 289b f25d b73f 3021 a463 d747 bd3f
000007d0: e642 7e30 f2de 86bf aa99 8149 8b57 71bf
000007e0: 0000 0000 0000 0000 0000 0000 0000 0000
000007f0: ac52 3dba 1099 4ebf 5cfe a50e 20a8 77bf
