src/weights/w.npy (npy, 16128 bytes, 1 tensors)

array f8 [2, 1000]
00000000: 148f 3778 8cf8 83bf 2677 911b 8d52 983f
00000010: 8c41 6806 2bf5 80bf c4b7 9a80 c723 79bf
00000020: b35a 5be8 4cb1 953f 2c7e 5855 59fe 70bf
00000030: 6066 ee3d 9a00 8cbf 2498 813b 315c 90bf
00000040: 76a3 0ed2 69dc 6f3f 28c5 7179 c274 69bf
00000050: fc1d 8cfb 63d1 9a3f bf8b 8070 40cb 53bf
00000060: 08d1 2202 ca1f 7cbf 54f0 9af0 7bc4 7d3f
00000070: 3e18 d214 44b5 3fbf 189f 0cb8 2951 8a3f
00000080: 8cc9 4067 3002 f3bf f75a 2c04 3f19 683f
00000090: 026d f17e 3247 50bf fc9d a69a dc08 51bf
000000a0: de1a 55aa d3bd a63f 8d19 cc14 5148 933f
000000b0: c047 4ac8 7186 a83f 8418 8a9e 6170 dbbf
000000c0: 725f 28cd a5dc 643f 72f2 ce91 1680 bb3f
000000d0: 912e 3171 a0b3 f0bf 8694 6e80 24e7 b43f
000000e0: 9dbc d5be fdde 89bf 328a 94b0 7f3d 7abf
000000f0: f8be d3f6 15d3 803f 8745 e9ec 3364 a7bf
00000100: 210e 8af8 09b3 f2bf 432a c4a6 19b0 843f
00000110: bad7 e7e3 054b 673f ba52 c0b9 b5fd 87bf
00000120: 50c7 0048 0160 d5bf c70d 9344 f0b6 793f
00000130: e491 3653 9e2b 553f 0ed7 8e0d 85f3 dabf
00000140: 8612 40ca dec1 8f3f 6976 122a 7927 55bf
00000150: 76d6 60fc 9bb4 a03f 4828 e4e4 d32e 73bf
00000160: 579b c09d c4a3 75bf 23f7 3696 cf7e 9abf
00000170: bf4f 32ad f806 f53f 1c74 b524 7402 5cbf
00000180: cf30 9f8a 6edc b43f 6db7 4681 656e 76bf
00000190: 357e a450 6e9b e8bf af34 3f6c 0108 d9bf
000001a0: 3c87 8a6f b1ab 80bf 6660 c6cc 8eb8 98bf
000001b0: b165 3c4c 755e 5bbf 6fab 404c 56e3 ca3f
000001c0: 37c6 e26e 8216 61bf 8831 4a0c ca8f 72bf
000001d0: f19f 4680 f6db bc3f 477a e12f da92 f0bf
000001e0: 1a70 6c92 e1ae d7bf faa9 4b93 fbd1 7dbf
000001f0: 48b6 bed6 4070 b03f 0bda ef08 9ead ab3f
00000200: ff6c b12b 5a39 e43f 0103 c1ce 1fb2 5dbf
00000210: 37a8 9e28 63da 8bbf 6aa8 47a1 46eb ddbf
00000220: bb46 19a8 c650 8abf f90f 4120 a495 89bf
00000230: 24ed 60f6 4bed cabf 9348 41db 6404 65bf
00000240: 55f9 7e32 be03 90bf 2f86 d87d 09ba 83bf
00000250: 6129 7b17 96a7 eabf 4037 d6bb dd66 e5bf
00000260: a1d0 bdec 5b44 8abf 98ff 27e5 289d 7ebf
00000270: deee 331b 3e46 793f e3dd 587a 6944 733f
00000280: 0d90 22f4 4b5e 73bf 8fa9 0ed6 7a87 83bf
00000290: b51a 7e2a a1a4 7bbf f25a c869 6d73 f3bf
000002a0: 210a 021a 08b1 88bf 61e1 bff3 f828 d7bf
000002b0: 05fd 1a66 1353 7d3f 9ebf c974 ce8a 533f
000002c0: fe8c 5861 2df9 babf 9894 54aa 269f 8a3f
000002d0: dee3 b1e4 7747 f0bf 10f9 6857 9fe0 45bf
000002e0: e8bf 7c31 7ef8 5a3f 7612 3438 bb25 07bf
000002f0: d132 fdb8 ef15 f0bf 6323 7fdb e2ca 78bf
00000300: 54b3 7ea2 3b91 c4bf ecaf 280a 0bc5 6cbf
00000310: 68e0 6981 5e84 a73f 3018 48e2 934a b13f
00000320: 5389 b8d7 d269 80bf 5627 a332 ea52 81bf
00000330: 1516 7a51 66f8 6abf 00c3 b293 74ed 88bf
00000340: aa41 e1ca 649f 713f bc46 01d8 2ff8 74bf
00000350: 51dc e48d e558 87bf 4d53 830f 6f8c a03f
00000360: 8f45 0b06 3d4d 71bf 9839 9f6e 0fb4 89bf
00000370: 470f 62cb ab1c 993f a54b 84e3 3525 a03f
00000380: bb2f b5dd 86d2 a1bf 97df 8d25 fab8 97bf
00000390: e960 1dd7 b029 ab3f 41eb 91d7 046e 81bf
000003a0: 9afe 68c3 c243 7a3f 7cc9 509e 062c 58bf
000003b0: e4cc 56e5 2087 54bf a15e 3783 430c 8abf
000003c0: e4ba 588c dfbe 7dbf 523c e9cb 8291 98bf
000003d0: faf9 4142 119e 78bf c637 2de1 1716 6fbf
000003e0: ba74 b36c 5ad2 72bf 6441 bbc3 6ca1 87bf
000003f0: 8b05 f9c0 be98 f6bf 0f41 57e5 6a4b 90bf
00000400: 6a52 ed1e c961 a83f 2bf3 c45e b700 a03f
00000410: c5e8 890a aec2 64bf c07d 142e e124 fb3f
00000420: f5b4 cff8 21f2 73bf 73fc 8a6a bc9b 75bf
00000430: 0ad8 e854 ce49 c9bf 4254 7579 1a64 e4bf
00000440: 8081 37b4 9bea a03f 4885 993e d255 c2bf
00000450: a07b 3a7d fd70 d3bf 563f 8abb 067e 433f
00000460: f59c 0e7e 903a e73f 80b9 366f 0f2d 78bf
00000470: 9289 219a 147e 91bf c076 ffc8 7558 8cbf
00000480: 3bea 2ac4 01a5 5ebf 52b5 3aec 840a 38bf
00000490: 498c 7fe3 b8a9 a7bf 35e0 197f 12d5 d1bf
000004a0: 2637 e1f2 a1de bd3f 1204 3f04 2472 d3bf
000004b0: a0b0 7ad3 d587 57bf b94a 12a2 3c1b 823f
000004c0: 409c 308b 5451 493f 35f9 58cd ba0e d8bf
000004d0: ee28 9465 2040 653f 5065 da10 7283 79bf
000004e0: f0ee 32ec b7a2 f43f 7122 f0eb b673 803f
000004f0: b65f 3638 a4eb 69bf 55a5 55d3 1f40 90bf
00000500: 65ab 426e b6a2 93bf a326 23f0 89c0 51bf
00000510: cda1 957b 99eb f53f 83d0 9f24 86b0 83bf
00000520: 9258 0ddc b8ed debf 31b2 0168 93ea 74bf
00000530: 202f 4191 5c8a 323f f151 a0f1 1c92 5d3f
00000540: bb97 d447 18a1 f43f fa2b a424 d5a6 5fbf
00000550: dc43 d7dc 95ed 84bf 6f95 6f2a 14a0 81bf
00000560: 5964 ad2c 8c9b ecbf 7ba0 cd94 9f46 92bf
00000570: 6d43 b560 fbc0 83bf d036 28c6 d1ae 89bf
00000580: 4113 5b80 0faa dabf 596d 49a8 18db a33f
00000590: 65f7 b3e4 8aeb 97bf 81a3 dd91 cad3 653f
000005a0: f275 411b 2972 85bf 2178 525e 4c50 94bf
000005b0: 42cc d28b baca 793f aab0 a5b9 f11d 813f
000005c0: f7ea ecee 9774 97bf 70b8 b3b7 6d6e c13f
000005d0: bc35 bc5b 52ce 46bf c250 6862 5718 613f
000005e0: 10b7 edf4 b8a7 7d3f 783f 5d46 e786 7cbf
000005f0: d7ae 5cf6 0a8f 353f 2e74 85f8 d22c 933f
00000600: faf4 05a5 168b b13f 9074 47c6 6b57 d1bf
00000610: 48fa 8437 1d4f c9bf e81c 3ba6 aaa5 6dbf
00000620: 3023 1df6 6b5b 89bf dc5b 9013 9f06 643f
00000630: 9516 d9d4 f536 52bf e5b1 a178 915c 963f
00000640: a971 d3ac eff7 7cbf 777a 86c4 111d 613f
00000650: 6ffe 594f 0512 92bf 9df0 681c c262 8f3f
00000660: 6dee a4ff db71 89bf e970 a2e6 ea0e c53f
00000670: 1231 620a 1591 b43f c6ce b833 a338 603f
00000680: c6ff 2414 0955 f1bf b85e ba2e a943 90bf
00000690: a02c dc3f 81eb ebbf 1279 1205 4e6b c23f
000006a0: 0e7a d261 72aa 8e3f 3bb2 e6fc 04a2 5e3f
000006b0: 48d6 c0c3 36cf a03f 55d2 c31c 1e81 ebbf
000006c0: 3b1f 354b 45d1 933f d118 7b22 d971 903f
000006d0: 962a 7618 2b91 833f 57cb 3a2d 7308 f5bf
000006e0: f087 cddf 0c84 82bf d334 5364 d713 e5bf
000006f0: 97a9 90ea 4674 d1bf 475b 0876 1943 78bf
00000700: e845 6713 1fe1 733f 1df5 94c8 6b3c 993f
00000710: 36fe 5d17 4f9a c13f 84d0 6e0d cd28 c33f
00000720: 4d4d a3aa a306 79bf ee6b 72d5 5652 3e3f
00000730: 47a7 4286 7ecd 7fbf 62c2 1163 a534 4fbf
00000740: fad7 94ce b5c6 a53f dd57 dae2 0a6e d0bf
00000750: 3844 9ee3 93e8 943f 97a4 1230 5dac e0bf
00000760: 90b3 7b3a 4a26 e33f bfed 4f48 76ad 973f
00000770: 6a2c 2a76 f5d3 963f 21e4 7a49 0fce f8bf
00000780: 9f86 360d 0826 86bf e7b8 06d1 1727 c9bf
00000790: b045 ae4e 7ae2 e1bf f21b 803a 82f8 a13f
000007a0: 0901 fd6d 490b a1bf 11b6 1165 d6bf 96bf
000007b0: 3739 beff 370e ac3f 71a1 1e47 5699 73bf
000007c0: 4166 0c7d abd7 a23f 461c 8b6e d450 d9bf
000007d0: 700e b8dc 59cc 94bf efaa 0b28 d0ce 713f
000007e0: 4cd5 929a 12d2 8cbf 006e e5db 60b1 8cbf
000007f0: 1318 c60a c960 84bf 1d62 f5b6 64b0 86bf
-0.00975141279099704 0.023752407844191435 -0.008280120976480253 -0.006137637430283453 0.02118415992921525 -0.004148816069146782 -0.013673024191848515 -0.015976685769054325
0.0038892809684125075 -0.0031074331596349265 0.02618938658545565 -0.0012081269542327658 -0.006866253943531804 0.007267460002989241 -0.0004838267530619145 0.012850118569601984
-1.1880344422648674 0.0029417258059639645 -0.0009935372470611385 -0.001039710458465736 0.044417013685736015 0.018830553907741843 0.04790072984646043 -0.4287342117535291
0.0025466192539730865 0.10742322025084564 -1.0438541814391196 0.08165195594354388 -0.012632353197402241 -0.006406306064749278 0.008215114207330995 -0.04568636195166236
-1.1687106808248091 0.010101509477427167 0.0028433909458227243 -0.011714381915262851 -0.3339846804766369 0.006277979418146846 0.0012921377318458821 -0.4211132652666131
0.015506496951283266 -0.0012911494489239678 0.0326279397562929 -0.004683330260613579 -0.005283134491071837 -0.025874370139482693 1.3142020001878192 -0.0017095693791227056
0.08148852238008718 -0.005476376060341665 -0.7689735007333584 -0.3911136204813585 -0.008139978615250613 -0.02414153218123296 -0.0016704698072714625 0.21006277774116763
-0.002085928680650519 -0.004531659364726777 0.11273136741385749 -1.0358526106207522 -0.3700488977353885 -0.0072803332484263576 0.06421284907147495 0.05405897006123802
0.632001004541422 -0.0018124876614963872 -0.013600134541622661 -0.4674851012229114 -0.01284938049790029 -0.01249244903022627 -0.21036672144132595 -0.0025655717709379216
-0.015639278251677286 -0.00963218131352325 -0.8329573114981877 -0.668806902760231 -0.01282569709994902 -0.007474097963949954 0.006170504191000707 0.004703914664382111
-0.00472860021014655 -0.009535751016149145 -0.006748799852977318 -1.2156805164465223 -0.012056411069584052 -0.3618757610670596 0.007159305359606853 0.0011927620099889467
-0.10536464335068627 0.012998869011946731 -1.0174483235734821 -0.0006676462206270124 0.0016461593967953495 -4.415013884265667e-05 -1.0053555704245591 -0.0060528623216179215
-0.1606821578438039 -0.003511926233178633 0.045931771562153056 0.067544214958702 -0.008014342506673577 -0.008458928747490251 -0.0032922743228620635 -0.012171660191911737
0.004302400322629666 -0.005119501962399017 -0.011400025742302729 0.032321425098109736 -0.0042240508780237015 -0.012550468982138338 0.024523433960453003 0.031533893607181875
-0.03480931717294263 -0.02316656927311519 0.0530524504271755 -0.008510625675844376 0.006412277979108838 -0.001475340331364621 -0.0012529202698317527 -0.012718703691390333
-0.007262109027165595 -0.023992580123657632 -0.006010119836103995 -0.0037947145841945333 -0.004595139714379909 -0.011538362239122697 -1.4122912919995965 -0.015912695167402065
0.04762104513671235 0.031255464857599634 -0.0025342368356265654 1.6965038108827315 -0.004869587614831907 -0.005275474549022541 -0.1975648798558612 -0.6372196552498581
0.033039918660281664 -0.14324405724168288 -0.3037713740285941 0.0005948574899594476 0.7258989774753944 -0.005902347841966082 -0.017082521350297926 -0.01384059924742631
-0.001870395398028037 -0.00036683793244203955 -0.04621675278738075 -0.27862989818777645 0.11667835406953184 -0.30384159483588846 -0.0014361942429941613 0.008841012664821834
0.0007726347743116715 -0.37589902928802427 0.0025940544843524515 -0.006228871888788248 1.2897261835595906 0.008033207965142371 -0.003164120427481233 -0.01586961486228707
-0.019175386886370122 -0.0010835024882446607 1.3700194194335495 -0.00961403655308169 -0.4832594059893235 -0.00510652142120853 0.0002829051966315322 0.0018048555998620953
1.2893297963978358 -0.0019318658328895109 -0.01021878318980101 -0.008606107277908418 -0.8939877388576277 -0.017847531754711526 -0.009645427597804812 -0.012540472850584378
-0.41662967238180576 0.03878094724924592 -0.023359461029932933 0.0026644665185142084 -0.010471650261190544 -0.019837563759772196 0.0062968527756082655 0.008357895353320838
-0.022905706365444947 0.13618251294923622 -0.0006959821834883677 0.002086802170433528 0.007240030753434615 -0.006964591424391979 0.0003289605868867901 0.018725677889382
0.06852857140434657 -0.2709607540435366 -0.19772687159452773 -0.003619035052767939 -0.012381404350564645 0.0024445635758740657 -0.0011117363641387813 0.02183749483849508
-0.007072387915482294 0.0020890566849652253 -0.01764686867545467 0.015325085155488966 -0.012424200762885829 0.16451774846507952 0.08033877852921403 0.001980131868345089
-1.0832606112380616 -0.015883105732966668 -0.8724981543795316 0.14389968154586846 0.014973538980766168 0.0018696831426538013 0.03283091678205757 -0.8595114290061
0.019352991786291112 0.016059296350044164 0.00955423038864937 -1.3145629660400198 -0.009040928440018775 -0.6586720427964344 -0.27272198588129853 -0.005923366029057692
0.004853364362547442 0.024644550435586433 0.1375216354463064 0.14968264728452507 -0.006109847376325317 0.0004626714703108149 -0.007764333950186337 -0.0009523208192501848
0.04253166338678223 -0.25671646264652087 0.020418463485445154 -0.5210405291483252 0.598424066758172 0.023122642673099266 0.022292933785632497 -1.5503075475992392
-0.01081472673724032 -0.19650552469597146 -0.5588962113126197 0.03509909595600637 -0.03328923671370105 -0.02221617690923067 0.05479598042357952 -0.004784905455302955
0.03680168057890088 -0.3955584601903336 -0.020310787293068733 0.004347622977301609 -0.014072556822024261 -0.014010197363567123 -0.009950228349008971 -0.011078631242228682
