src/weights/w2.npy (npy, 16128 bytes, 1 tensors)

array f8 [1000, 2]
000000 e5 62 ac 62 97 fa 7f bf 35 23 1c c6 c1 19 77 bf
       -0.00780734190882335 -0.005639798096816408
000010 50 b0 c3 2a 13 b3 de 3f 4e 0e 3e a7 c4 6e de bf
       0.4796798627492125 -0.47551075298563183
000020 2c 4a 18 fe 76 d3 56 3f 6a 82 42 0b 85 f3 74 3f
       0.0013931905781460292 0.005115050986348105
000030 52 25 fe 1f bd a1 82 bf b6 01 3d ee 84 c5 53 bf
       -0.009097554720727406 -0.0012067602301187703
000040 32 f3 2f 11 0f 3f 9a bf b2 df 5b 82 61 16 9d 3f
       -0.025631175445585082 0.028405688840365158
000050 d1 98 f3 4c 60 65 84 3f af e4 5c 5c 42 d2 86 bf
       0.009958984707236248 -0.011143225139323169
000060 c5 0a 72 3d 1b 3f a8 3f 66 4a 94 81 5b 46 9a bf
       0.04735646367136818 -0.02565901735676803
000070 32 6c 66 5b 8d 57 52 3f 2d 0f 21 84 a2 8e 73 3f
       0.0011195068778764414 0.004774699047690051
000080 e4 ab 5d bc 8f 84 90 3f a6 f4 61 3a 35 9e 88 bf
       0.016130681869451893 -0.012020507663914447
000090 2a 8d a5 14 de 1c 93 bf 84 5a bf 7c b4 2c 7a 3f
       -0.018664808283017788 0.006390290287490278
0000a0 91 59 42 06 f4 f7 8c 3f c1 1f 0b e2 e3 d2 97 bf
       0.014144808236136426 -0.023265419646832933
0000b0 1f f8 ba 82 4e 2e 7f bf 53 d9 3f d3 ba b6 6d 3f
       -0.007612520868574917 0.003627171414332478
0000c0 d5 02 23 f8 f8 e1 8b bf 10 4b 93 f1 77 d1 91 3f
       -0.0136146021581011 0.017400621528234572
0000d0 5c 74 db 90 09 1b 97 3f 5f b0 e4 f9 32 38 96 bf
       0.022564076868423974 -0.021698757650640107
0000e0 0a 83 42 19 0a 09 9b bf 05 f8 91 67 28 25 4c 3f
       -0.026401670257317135 0.0008589217460579507
0000f0 4e fd 04 06 b4 55 74 bf 78 ba 77 52 e7 05 9b 3f
       -0.004964545456743364 0.026389707954815184
000100 16 6b ba 3c 46 ec f0 3f 65 fc ae ec 95 fe f0 bf
       1.0576841709323097 -1.0621546979380352
000110 22 10 9c 9a cc 0d 6e bf 3c 58 bd d4 05 8a 86 3f
       -0.003668689362600134 0.011005445055769163
000120 96 0e 53 8d b5 d8 53 3f e6 e9 7b 00 2f 4e 81 3f
       0.0012113354653572653 0.008449904634734783
000130 83 27 54 4d 6a 6e 78 3f 57 8c 69 1b 60 d9 50 3f
       0.005964675180857418 0.0010283888383575601
000140 bd b0 be 30 a1 34 a5 bf de 82 12 d4 32 b3 b0 3f
       -0.041417157364180814 0.06523435285135856
000150 e4 fa 4f ce 52 cb 9c bf c8 5b 7f 05 21 bb 96 3f
       -0.028119367449103275 0.02219821544698755
000160 37 0b 24 85 66 f8 b0 bf 6f d8 85 96 6b ea b0 3f
       -0.06629029036052435 0.06607696938394424
000170 7e 2b f7 36 e8 b2 d8 3f 85 82 4f 93 fe 61 d8 bf
       0.3859196221134694 -0.3809811056690154
000180 83 aa 33 fa a0 14 7e bf cc a9 10 e1 75 ba 28 3f
       -0.007343891923691562 0.00018866242365451894
000190 10 40 17 29 7b dd c2 bf 04 2d 5b 71 81 0a c4 3f
       -0.14738406664264447 0.1565706065651754
0001a0 fc 9a 70 8b 22 c1 ed 3f 80 86 5b 23 80 cb ed bf
       0.9298260425028668 -0.9310913744522651
0001b0 a2 45 1f a7 23 9d be bf a6 4d 42 a2 ae d6 bb 3f
       -0.11958525495653885 0.1087445398464327
0001c0 3e 8f cc 89 ab cf a6 3f ad a7 81 a1 d0 4b af bf
       0.044553146907019045 -0.061125297274727465
0001d0 f3 09 34 67 48 e2 71 bf 04 35 08 06 3b a4 4f bf
       -0.004366190743214637 -0.0009656227303495306
0001e0 bb 5e 55 1e 5e a3 86 bf 7c 45 11 0c 97 b8 78 3f
       -0.011053786564544912 0.006035413768658567
0001f0 96 02 93 0e f7 c4 bf 3f df d6 bb 31 2d 5b bf bf
       0.12409919839684344 -0.12248499359324282
000200 f8 02 a6 3f 85 a8 f0 3f f2 a6 ec c0 67 a1 f0 bf
       1.0411427007931575 -1.0394055877790689
000210 ac ff 43 7c a6 0b 9c 3f 0e c8 fc 73 08 6e ad bf
       0.027388192495891125 -0.05748011031973031
000220 d6 82 2c eb 8d d9 64 bf b3 ec ba 65 e6 82 80 3f
       -0.00254514425741124 0.008062171916540661
000230 7a ba 83 7e fe 45 85 3f e7 01 12 2d 71 24 89 3f
       0.010387409435194107 0.01227653902810828
000240 78 16 3f e3 e0 cc cc 3f 2b ae 9f ca 84 7a cb bf
       0.22500239463822758 -0.2146764745115076
000250 49 70 8f 3a 8e 5d 85 bf 7b 57 8c 4f 10 d0 73 3f
       -0.010432349359625575 0.004837096895036082
000260 bb 03 d2 4b 06 c5 6c 3f 66 6a eb 83 67 b4 88 3f
       0.0035119173977027052 0.01206284400307318
000270 01 53 e8 0b 79 ca d2 3f ec eb 41 2f a7 73 d3 bf
       0.29360796130031025 -0.30393390288344224
000280 a5 1d df 25 b5 85 91 bf 74 7b d0 92 76 16 8d 3f
       -0.017111616550918324 0.014203001361293245
000290 64 4a 45 a4 8c 90 7b 3f f1 c5 db b4 b5 c1 80 3f
       0.006729649907657096 0.008181972104895659
0002a0 17 4b c3 78 3a 77 a6 bf 44 eb 50 1b 8c ca a5 3f
       -0.043878390542564975 0.04256093820045817
0002b0 85 13 2e 5e ed 20 91 3f db e2 05 91 ce cb 8b 3f
       0.016727169869699594 0.013572324562788498
0002c0 c3 83 5b 06 d5 8e 7f bf 03 a2 e4 26 f6 8b 8a 3f
       -0.007704574707276759 0.012962267934725885
0002d0 6e a2 e9 a8 53 aa 7c bf 17 86 0a a7 21 51 72 bf
       -0.0069983737908861764 -0.004471904234976807
0002e0 2b 90 70 13 c4 37 ed 3f 2b f3 6c 04 dc 5e ec bf
       0.9130573634797704 -0.8865795217931
0002f0 56 e9 1a ec 11 49 70 bf ca ae e2 13 e9 21 01 3f
       -0.003975934990814464 3.2677579370724694e-05
000300 b7 44 a8 06 2a a0 ba bf ff 0b 5d 66 87 0a bf 3f
       -0.10400641119510366 0.12125440835102096
000310 91 e5 16 97 62 36 39 3f 81 12 44 12 a8 44 54 bf
       0.0003847113321984947 -0.0012370721170224255
000320 6e c8 3c f1 42 df e1 3f 82 f2 bf 6c a3 e6 e1 bf
       0.5585036002796764 -0.5594040988940636
000330 f3 3c 57 2d 0b ad d1 3f 8a 94 fb 83 b3 b3 d2 bf
       0.27618674686250627 -0.29221809281291
000340 13 50 8a 7a 4e ad 71 3f dc 40 f9 3a 9d af a0 bf
       0.004315668637577391 -0.03258982987301959
000350 ea 83 6a 97 d5 08 74 bf ad f9 83 1e a4 00 65 3f
       -0.004891237584758715 0.002563782258334166
000360 23 c1 08 29 f8 57 55 3f aa ab 2e 50 59 71 71 3f
       0.0013027118149118797 0.004258488540396602
000370 26 2e 19 c6 4f bf d5 bf 79 cf 8e 82 b4 93 d4 3f
       -0.3398017344049741 0.32151520490446434
000380 66 a1 37 6f be fe 74 bf 0c 70 79 e0 36 af 75 3f
       -0.005125755199948711 0.005294050562579155
000390 1f 98 fc b7 e7 7b 98 bf 7a f2 93 30 03 5d 75 3f
       -0.023910160641342878 0.005215656719198431
0003a0 36 1a 61 9f 1c c2 e2 3f ed a2 cc 0a 7b fc e2 bf
       0.5861952889325213 -0.5933203898358365
0003b0 2f fe 2c be 3e 34 e8 3f cd d6 36 0d 54 05 e8 bf
       0.7563775743837534 -0.7506504304971827
0003c0 90 d0 f7 a5 d2 fc d0 3f 9a ee 37 21 b6 55 d0 bf
       0.26543108184638076 -0.255231411399771
0003d0 6c af dc ff c2 b9 80 bf 7e 0c 9a e0 6f 28 94 bf
       -0.00816681235627189 -0.019685504993060203
0003e0 5b 88 fe 9c f8 b8 d0 3f 4e eb c6 68 c6 b5 d0 bf
       0.2612897427699232 -0.26109466774112355
0003f0 b3 c5 ee 4e 4c 13 b3 bf ea 49 f5 29 06 f3 b3 3f
       -0.07451321532314274 0.07792700313920134
000400 8c 59 28 7a 87 fb db 3f 6e 19 e0 1a 44 5f db bf
       0.4372271244950745 -0.4276895773367845
000410 f0 28 f7 b1 87 71 89 bf 91 38 d6 2e 05 07 71 bf
       -0.012423572653365217 -0.0041570856532314885
000420 05 ff 45 54 35 e4 9b 3f 27 50 80 1b bf dc a2 bf
       0.027237733143464577 -0.03684041224201478
000430 99 b8 51 2e fc ab d3 3f 6f 97 1c 07 4b aa d3 bf
       0.3073721363388216 -0.30726886457920605
000440 77 bd db 2f 78 b8 6a bf 6e 99 1e 23 2a 04 7c 3f
       -0.0032617900277426798 0.006839909170514564
000450 d5 b7 22 68 2b 2d 8e bf c6 ce 3f 11 19 9d 40 3f
       -0.014734591594187588 0.0005070087813678562
000460 e2 66 b8 13 2b 57 cd 3f b1 8d cb 96 e8 01 cd bf
       0.22922266447931522 -0.2266207443527555
000470 cb 08 e6 09 49 f3 70 3f 75 c2 0a 8e f3 35 88 3f
       0.004138264949121682 0.011821654102591264
000480 5a a1 96 7f 32 fa 8a bf c7 e5 4e b3 bb 9c 82 3f
       -0.01317252590054412 0.009088007363845641
000490 ef 3e f2 ba 30 da 9f 3f c4 4c f0 78 b3 c2 9f bf
       0.03110576764134881 -0.031016163116942122
0004a0 aa e3 ac 45 f0 3a e1 3f 1a 0f 44 c4 9e c0 e1 bf
       0.5384446488234194 -0.5547632058446397
0004b0 b3 b7 64 9e b7 e4 dc 3f 14 ef 07 8d 70 c9 dc bf
       0.4514597937403508 -0.44979490063245575
0004c0 07 84 74 a5 a8 47 86 3f 7a ce 64 d6 9e 61 8d bf
       0.010878865765848301 -0.014346352498797222
0004d0 51 cc bc 0c 63 fb 7e bf a0 5f 28 0b b3 2e 88 3f
       -0.007563959992512429 0.011807822015768299
0004e0 13 5b 7f 73 bf 6a 8e bf 6f 35 19 4d 88 ef 80 3f
       -0.014852042877391313 0.008269371846064215
0004f0 d3 0b e5 24 f8 ee 85 bf 5f 59 db 30 4c 6b 62 3f
       -0.010709704042374845 0.002248429117439318
000500 45 fe c6 1d 66 53 38 bf cd 8b 6c 02 94 71 7d bf
       -0.0003711818988243225 -0.00718839470099204
000510 3e d1 50 dc f5 2d 9f 3f a7 cf f4 d6 31 70 a1 bf
       0.030448762485506757 -0.034059102525503086
000520 5f fb c9 98 3e 83 7b 3f 1a a9 70 81 8b e8 62 bf
       0.006716961401820181 -0.002308151695179406
000530 87 eb 60 45 80 1c ec 3f 9e 39 b1 87 3f 6b ec bf
       0.8784791331339513 -0.888091816925044
000540 a5 9d 70 d9 76 b9 76 3f df 93 4d 1e ac d9 76 3f
       0.005547966246957446 0.005578682267558726
000550 29 82 7a 18 71 bd d2 3f 18 40 9d c7 e7 c9 d2 bf
       0.29281260862811337 -0.2935733270032883
000560 3a 1a fa 74 7d 3b 43 3f 00 f4 56 cc 2f 5e 96 3f
       0.0005869257528992651 0.02184366879167854
000570 d2 e3 e4 03 a3 68 79 3f 40 0d 3f ec 60 fe 87 bf
       0.006203305032891531 -0.011715657434143822
000580 c0 b7 b9 ed 8f a8 d8 3f 0b 7a ce 5c c8 0a d8 bf
       0.38528822150589903 -0.37565812171115515
000590 68 53 ac 56 ee 80 82 3f e5 62 89 92 c3 66 95 bf
       0.009034978885702663 -0.020899825877083073
0005a0 38 f1 de f6 77 95 e6 3f eb 71 82 18 41 a6 e6 bf
       0.7057456800171513 -0.707794711942879
0005b0 22 97 cc 80 7c fd 74 bf 2f 1c 19 89 ff 8a 91 3f
       -0.005124555912322555 0.0171317984989196
0005c0 a7 a5 7f bd 31 4c 8c 3f 0d 97 95 bd f3 dc 7e bf
       0.013817204089678748 -0.007534935103967089
0005d0 e1 5f 0a 72 ba 58 68 bf cc d4 ce 45 60 53 8a bf
       -0.0029719964516736618 -0.012854339723939033
0005e0 b7 f2 9e 5c 29 1c e5 3f 1e aa a8 1b 06 1c e5 bf
       0.6596876915933397 -0.6596708812915641
0005f0 64 5d 0c 06 23 a5 65 3f 3f 98 14 cf e8 c2 76 bf
       0.0026422199301909133 -0.005556973848149182
000600 88 fb 00 bf af e2 ca 3f c0 04 1f c3 da 79 cd bf
       0.2100429232250145 -0.23028120543862052
000610 2f 30 47 95 c0 47 94 3f bb a5 5f 4b 8b 19 8a bf
       0.019804963217936396 -0.012744034040184418
000620 20 e4 eb 11 74 22 b2 bf 64 3d 19 8d e8 c3 ad 3f
       -0.0708382171395816 0.05813528749842581
000630 a6 53 94 1f 9a 05 b9 bf 4b c6 0f 3f c0 2d b7 3f
       -0.09774173041326026 0.09054185428228682
000640 5a a2 8d 95 e2 3b 6a bf aa 5d a7 5f f7 8d 88 3f
       -0.0032023835632808808 0.011989529234525193
000650 7b 43 f2 d9 b6 e8 8a bf a3 3f d6 28 b1 04 8c bf
       -0.013139179731554531 -0.013680824335807367
000660 de 68 ee 7f b3 f3 80 bf a1 bf e0 fc 0d c7 7e bf
       -0.008277323094990793 -0.007514052047596837
000670 02 71 f7 3a 23 2a 9a 3f bf 43 0d 12 8d 9e af bf
       0.025551367258104037 -0.061756523564902015
000680 ac 60 35 00 da 71 4a 3f 21 35 3b 14 be 7c 75 3f
       0.0008070291955091422 0.005245916839794946
000690 aa a4 6a 93 5f 2e 64 3f 23 51 1a 28 e4 62 88 bf
       0.0024635187831632726 -0.011907370065536832
0006a0 3b 7e be 5e 04 c3 88 bf f1 19 17 59 4a 25 74 3f
       -0.012090715543137445 0.0049183754176227315
0006b0 5d 85 3e d7 3b 17 a0 3f ce 05 35 70 59 c4 8c bf
       0.03142725946896505 -0.014046381699361368
0006c0 33 59 97 12 68 84 7f 3f e4 47 aa 73 3e 4a 5a 3f
       0.007694632085494302 0.0016046152001405406
0006d0 be d7 18 32 14 df 7a 3f bf da 22 c0 4c 36 82 bf
       0.006560400857372471 -0.008892631162195184
0006e0 f0 60 63 60 0a 18 99 bf dd a2 ef df 69 c9 a4 3f
       -0.024505769856518478 0.040599163614222646
0006f0 2a 29 3d 84 d7 7b cb 3f 2e 07 b6 cf a8 45 cc bf
       0.21471685368516918 -0.2208758367742631
000700 73 8e a2 36 88 61 b5 3f ef 30 69 01 e2 97 b1 bf
       0.08351947149145093 -0.06872379812665817
000710 2c eb c9 fb 37 12 12 3f d6 80 7f bc 3e 93 86 3f
       6.893603035422181e-05 0.011023035171036016
000720 81 00 e3 5e d7 56 d0 3f 68 ee a3 dc dd 4a cf bf
       0.2553003718021572 -0.24447224877791318
000730 f5 ad 14 e2 4e 59 75 3f 74 a9 59 b7 4c 30 84 bf
       0.0052121240017117725 -0.00985774931469472
000740 6a 16 78 6a 8e 38 56 bf f7 31 a2 63 5a cb 8d 3f
       -0.0013562575130675832 0.014548021474433332
000750 6a a4 0b bb c8 24 50 bf 17 9d 33 25 99 8f 88 bf
       -0.0009853325138300625 -0.011992641876033034
000760 ee fb 8a 3a 8c 08 8d bf 40 b2 f5 f8 36 d7 77 3f
       -0.014176459824168899 0.005820479141544654
000770 ee f2 72 0a 8c 6e 9b 3f 8d be 02 c3 b6 7b 7d 3f
       0.02678889096999886 0.007198060906531756
000780 84 e0 bf a4 6b 82 95 bf 5f 06 96 97 a2 73 4e 3f
       -0.021005327158463163 0.0009293121249102746
000790 a0 2f 13 bc c9 1d 8d 3f a5 c6 af 05 78 5e 73 bf
       0.01421697240075287 -0.004728764378329285
0007a0 6a b2 6e 8f 1d 22 44 bf 81 7a d1 1b 1a 37 88 bf
       -0.0006144184434240922 -0.011823848699518582
0007b0 62 9d 1a 03 f1 5d 80 bf 0c ec 52 b7 43 ec 75 3f
       -0.007991679103112662 0.005352272525835932
0007c0 cb f1 57 83 15 53 43 bf 0a dd 31 66 93 1e 95 bf
       -0.0005897383732072435 -0.02062444983718329
0007d0 be 94 bb 05 bf 7c 90 3f 01 4f fa 7f c2 49 8c bf
       0.016100868916414816 -0.013812560587474378
0007e0 2a 55 79 f6 8b 22 f4 3f 99 d5 64 42 eb 42 f4 bf
       1.2584342601670166 -1.2663376420508483
0007f0 4a f7 63 69 b4 b6 a2 3f 0e b4 8b 73 de a6 a4 bf
       0.03655017649178534 -0.0403356090590493
